mtcnn_landmarks/infer_models/PNet.pt (torch, 31813 bytes, 12 tensors)

conv1.weight f4 [10, 3, 3, 3]
00000000: 9a5c 943d 0a09 93bd bc76 3dbd efc8 48bb
00000010: ae01 7bbd 21f8 8d3e a35f 5abe d1b4 3b3e
00000020: 2eed 2fbe 9770 71bd 4475 13bd dd12 c03d
00000030: 79e0 2e3e afe5 d83d 861e 28ba aee4 08be
00000040: ae2a 723d fe85 8bbe a096 20bd 9bbf d33d
00000050: 70e1 f53c 1ba8 303d 044a 15be c061 efbb
00000060: c806 c83d 5138 863d 8165 47be 011e 0d3e
00000070: 93fa 4fbe 587b 7f3d 0f71 3cbc 6df6 3d3d
00000080: 9455 673e f45d cebe d2dd eebd b36d 163c
00000090: 2a92 a23d b963 de3d 4f91 30be b5b0 19be
000000a0: 0dd5 6bbe c392 ad3d 907e e9bd 06a6 abbd
000000b0: d9cb 1a3b eaf4 ed3d 8c43 c93d 6bef e43d
000000c0: 2236 a53e 8d70 f53d 8161 8bbe 1988 5ebd
000000d0: 14e7 2a3e 9f2b d7bc e3c4 8ebe 17af 59bd
000000e0: 8d3d fd3c 1c48 6bbe aac1 19be 134f 88bd
000000f0: 8f6b b43d d50f 09be 32c7 b23c f293 193d
00000100: c4bb 0bbe 767e 743b 46aa a33d 58f8 fa3d
00000110: be45 12be dde5 963c 9067 00be 2df0 85be
00000120: 495c 973e 8c57 903e a7da 983d 173c f53d
00000130: d8cf f63b 0246 493e 8861 23be 917f 0b3e
00000140: 9305 ca3d 4f0a 333e 9947 233e ecb2 6cbc
00000150: c126 6abe a980 143d 7d5f 3cbe c051 993d
00000160: ab9f 86be bc9e abbe f44c 243d 15c8 a23d
00000170: 68d9 3fbd 45c8 ed3d dbf1 e53c 0764 3c3e
00000180: 2f90 c33d 6b53 893e 5058 4a3e d767 933d
00000190: 66b2 60bc de77 283e e369 ba3d 7713 f93d
000001a0: 22e2 0c3e e29a bebd b9b0 0dbd 9b51 ee3c
000001b0: 9419 30be 0e0b 8ebc c4f2 23bd 6c20 933d
000001c0: 140b 74be 349e d03d a06a 0ebc d374 833d
000001d0: db46 b43d 79d6 eabd 8b68 07be 03d3 fabd
000001e0: 3f61 8cbe 6117 203d 8a11 12be 38ed 1d3e
000001f0: e53f d83d b891 7fbe 7761 6d3d 5610 14be
00000200: ba40 a6bd 6e36 28bc f736 21bc d78d d3bd
00000210: 7d7f 20bc 80c5 02bd 3ddc 043e 4b70 09be
00000220: e582 833d 7c6e 693e 75d3 97bc df4d 693b
00000230: 8ea3 183e 15b3 00be dad4 80bd 68fd f5bc
00000240: ccfd 483e 0ae4 893d 4211 9f3e cba0 4f3d
00000250: 7b78 2fbd 0ee4 43be 818c d03d 9eab 72bd
00000260: 1c2d 8d3c 3565 1abe a7eb 70be 1e11 d0bd
00000270: e030 093d dded af3c 6d71 03be 7532 233b
00000280: 2219 3e3e 15ee 243e 4c53 afbd 0b89 193d
00000290: 0b25 e0bd 0241 1f3e fb6c c83d 5322 38bd
000002a0: 21f9 44be a2d8 013b 067a 383e b55f a1bd
000002b0: 8c5f 90be 4476 b5bd a00d 81be 77f7 c73d
000002c0: ad45 9c3d 49d8 813d bdcc 593e c1d8 26bd
000002d0: 3da7 44bc 7a88 823d a771 403d c8cf bfbd
000002e0: fbc2 3dbe 6eed f2bd d0f3 3c3d d77c 2bbe
000002f0: 4342 92be 3f92 a83d a954 983d cc70 6c3d
00000300: c490 b0bc a4df 00bd 8168 0abd 58b5 f2bc
00000310: 00ed 573e 38a7 2bbd 4bd7 1e3e c18e 7d3d
00000320: 1f0d 8d3c 9a77 f4bd 8705 42be 2184 f13c
00000330: 1d71 a0bd 4fdb febc 2cb7 a13d 2e94 6bbe
00000340: 1e03 df3d 4c82 0d3d 5954 b7bd 33d6 043e
00000350: 89bc 54bd 48cb bcbe a243 a8bd 8a77 14bc
00000360: 88e5 afbc f594 bfbd 644d 613d 4a44 beba
00000370: e5bd d73d 6c77 96bd 5952 cb3e 6c09 3abd
00000380: 5aeb a43d b44d 03ba f889 5dbc 18f9 1c3e
00000390: 0bc0 e53c 5a01 083e 8c2f 203e 4641 193e
000003a0: 5273 2e3e 800f 833e c43b dd3c 5df3 c93d
000003b0: 7560 49be 3fc5 1cbd 73a7 86be 6a57 50bd
000003c0: 5a4f d4be a677 44be 8313 8fbe aabc 273e
000003d0: 5cce c3bd b7a0 7ebc de5f 203e 49b0 c0bd
000003e0: e11c d6bd 33be 1abe 0974 dc3d 9a2e f73c
000003f0: d9da e0bd 4b61 6dbd 39ec 063d cc3d cfbc
0.07244225 -0.071794584 -0.046255812 -0.0030637344 -0.0612809 0.2772837 -0.21325545 0.18330695
-0.1718032 -0.058945265 -0.036000505 0.09378598 0.17077817 0.10590684 -0.000641324 -0.13368484
0.059122734 -0.27250665 -0.039206147 0.1033928 0.030014724 0.043129068 -0.14579016 -0.007305354
0.097669184 0.0655371 -0.19472314 0.13780977 -0.2031043 0.06237349 -0.011501565 0.046377588
0.22591239 -0.40306056 -0.116634026 0.009181428 0.07938035 0.10858864 -0.17242931 -0.15008815
-0.23030491 0.08475258 -0.11401093 -0.08381276 0.0023620038 0.11618979 0.09827337 0.11178478
0.32267863 0.11984358 -0.27222827 -0.05432901 0.16689712 -0.026265917 -0.27884588 -0.053145494
0.030913139 -0.22976726 -0.15015283 -0.06655707 0.08809578 -0.13384946 0.0218235 0.037494607
-0.13645846 0.0037306822 0.079914615 0.12254399 -0.14284417 0.018420154 -0.12539506 -0.26159802
0.29562595 0.28191793 0.074635796 0.11974352 0.007532101 0.19655612 -0.15955174 0.13622881
0.098643444 0.17484401 0.15945281 -0.014446955 -0.22866346 0.036255512 -0.18395801 0.07486296
-0.26293692 -0.33519542 0.04011245 0.07948319 -0.046838194 0.11610464 0.028069427 0.18397532
0.09548985 0.26821455 0.19760251 0.0719754 -0.0137144085 0.16451976 0.091022275 0.12161916
0.13758138 -0.09306885 -0.034592364 0.029091647 -0.17197257 -0.017339256 -0.04002644 0.07183918
-0.23832351 0.10186425 -0.008692414 0.06418767 0.08802577 -0.11466689 -0.13223474 -0.122472785
-0.27417943 0.039084796 -0.14264503 0.15422523 0.10559062 -0.24957931 0.057954278 -0.14459357
-0.08117814 -0.010266883 -0.009839765 -0.10329788 -0.009796021 -0.031926632 0.12974639 -0.13421743
0.064214505 0.22796053 -0.018533448 0.0035599393 0.14906141 -0.12568314 -0.06290598 -0.03002806
0.19628066 0.06732948 0.31067854 0.050690453 -0.04283951 -0.19129965 0.10183049 -0.0592457
0.017233424 -0.1507767 -0.23527394 -0.10159515 0.033493876 0.021475727 -0.12836237 0.00249019
0.18564275 0.16106446 -0.085608095 0.03748421 -0.109445654 0.15552142 0.097864114 -0.04495461
-0.1923566 0.001981296 0.18015298 -0.07879583 -0.28197896 -0.08860448 -0.25205708 0.09763997
0.07630477 0.06340081 0.21269508 -0.040734056 -0.012002763 0.06373687 0.046983387 -0.09365803
-0.1853141 -0.11861692 0.046130955 -0.16746841 -0.2856618 0.08231019 0.07438023 0.05772476
-0.021553405 -0.03146328 -0.03379107 -0.029627487 0.21086502 -0.04190752 0.15511815 0.06190372
0.01721817 -0.11936875 -0.18947421 0.02948195 -0.07834075 -0.031110434 0.078962654 -0.23005745
0.108892664 0.03454809 -0.08951635 0.12972336 -0.051937614 -0.3687384 -0.08216025 -0.009061703
-0.021471754 -0.09354583 0.055005446 -0.0014516201 0.105342664 -0.07346997 0.39711264 -0.04541914
0.08052702 -0.0005008832 -0.013521664 0.15329397 0.028045675 0.13281766 0.15643138 0.14966306
0.17036179 0.25597763 0.027006038 0.09860871 -0.19665702 -0.038274046 -0.2629963 -0.050864615
-0.4146679 -0.19186267 -0.27944574 0.16380563 -0.09560844 -0.015541247 0.1566157 -0.09408624
-0.10454727 -0.15111618 0.107643194 0.030173589 -0.10979242 -0.057954114 0.032940123 -0.025298022

conv1.bias f4 [10]
00000000: 561a 0dbe 3bbc 3abe 1cd2 1b3e 8931 143e
00000010: 56d1 7ebe efd7 ae3e 7fad 90be 86f4 433e
00000020: 7b0a ba3d 4187 513c
-0.13779578 -0.18235867 0.15216869 0.14472021 -0.24884543 0.3414912 -0.28257367 0.19136247
0.0908403 0.012788595

conv2.weight f4 [16, 10, 3, 3]
00000000: 7291 29be cf1f 87be dbcd 6ebd 9daf a4bc
00000010: fea9 9abd e842 64bc fc97 523d f97e 9a3d
00000020: ccdf d33e eaf1 1abe dc3a df3d 995f 753d
00000030: 6dca acbe 902c 8a3d 8540 1f3d aba3 11be
00000040: 0cae e4bd d66a 793d 45a8 1bbc da9a 933b
00000050: 5342 5cbe 2643 913c ebbe 683d 18bd c63c
00000060: 0bef 283c afab fcbc 22f9 de3e dac5 5d3d
00000070: df77 403c dd1c b7be 4a48 fc3c 8091 d0bd
00000080: 5ba9 11be b10c 773c 74e2 4fbd 5ac7 f9bd
00000090: bf9c ddbc 3b4e a3bc 144b 353d 5a46 a83b
000000a0: d87e 39bd 1b26 87bd 32cd cdbd 14a8 a6bd
000000b0: c6e4 e7bd c476 433d 6254 bcbc eaac c03e
000000c0: 4bba 0a3e 8afe 8ebc 20bf 27bd c7a1 283e
000000d0: d438 82bd 8ac1 0f3d b959 79bd d28d dc3c
000000e0: 559b 6d3d 1fca 373d 3b83 a1bd f68f 17bd
000000f0: 4745 39be 32bf 3dbe c9f7 9d3e 3d8d 9b3c
00000100: 4819 913e 45c2 663d d4ec 92bd f036 0e3d
00000110: 76f8 47bc 65b0 dabd 9f25 ac3d 7da0 523d
00000120: bbb8 c83e ab47 e83d a787 943c f0fe 533e
00000130: 126f d9bd 0d5b c0bb 3049 84be c5d9 92be
00000140: 2638 4a3d c216 dcbc 6a5d 9dbd 322c e83d
00000150: d3ab 71bd b4be 05be 8d8e 9cbc 512a adbd
00000160: 6ee1 1fbe 0c15 193e 7927 0fbd 02f1 003e
00000170: 6d44 973c 1523 a63d f471 bdbd 4378 51bd
00000180: af67 3bbd cd0a 57be 5988 353d 1724 4c3e
00000190: f74e 9abb 62a5 f4bb cd8e 883d 5c82 583d
000001a0: e0ba 0c3e b7ac 123e d6ce b5bd 805c 533e
000001b0: e114 44be a059 a6be e457 21bd e5a7 c3bd
000001c0: 6f98 1fbe 101c cabd 3f44 fb3d 9591 b73c
000001d0: 8304 2cbe cf89 c1bd 8147 37be 2879 32be
000001e0: dd7b 923d ea82 fcbd b59f 69be 8ac3 393d
000001f0: 9d66 8a3d 9fef b83d 3590 aabb 7e85 9fbd
00000200: e709 d23d acdd 333d 331e f6bd d77c 31bb
00000210: d3bd 143e c476 b93d 3ab9 82bd 1711 a7bc
00000220: d66e 83bd 1bb0 9c3d 7cbf 2c3d 0a0b f23d
00000230: b0ac 8d3d 7a4b 0ebe 41b1 69bd e3f7 093e
00000240: 4909 97bd 7deb c13d 1c84 b9bd 0b2f 06bd
00000250: ee3b 25bc f2f0 2d3d 4101 38be b15f 10bd
00000260: d7fa c73d 39eb 3c3d 2673 e0bc b0dc bcbd
00000270: ce7e 88bc 8cc5 063b 21a2 8bbd 3ffc 7d3d
00000280: d8e0 e1bd 7d06 d2bd b0a1 10be 44a9 61bd
00000290: 274e f7bd b288 9f3c 7c3b 4ebe 0fc6 bcbd
000002a0: 954f f1bd 639d fabc 5412 c93d d580 7ebc
000002b0: 6b4e 25bd e5ab f7bb 42a5 80bd f482 333d
000002c0: 4c7b 9d3d 089a e3bc a961 ce3d 7f77 803d
000002d0: 1930 34bb a817 083e 2eef 823c c7ae 80bb
000002e0: 1af1 7d3d 71b1 de3b 7ab9 e63c 65b5 ae3b
000002f0: b449 053d 8ffd f23d 65c7 01bd 1dbd ad3c
00000300: d189 293e afd3 67bc de8e 7abc 17a7 a6bd
00000310: c0c8 21bc e47f 913d 9c80 063d 2732 1bbb
00000320: 3944 233d a9c3 93be 7265 61bd 324e 923d
00000330: f284 e73d cbbd ffbc e9af 91bc 9299 283d
00000340: 9ca0 863d 41ff 21bc acc8 e7bd df23 c9bc
00000350: f7dc bd3d e3a5 973c 30e3 a03d 15a6 fd3a
00000360: 7301 883e 9056 063e 8670 623e 693a e7bd
00000370: ab97 293e 76b3 423e c882 8e3b 3ffc 503e
00000380: 09df 53bd a2be 62bc bfaa 3a3d 6aec 233e
00000390: c204 1a3b d568 da3c 9150 063e 064c 163e
000003a0: 36a4 e93d ce21 593e bd2a df3c 43d0 4cbc
000003b0: a415 2bbd 42e1 cf3d 4920 88bd 597a 37bd
000003c0: f889 23be b7be 6fbd cf2f cd3c 26bb 94bd
000003d0: 35e6 8dbc 275d 973c a9cb e63c b863 bf3d
000003e0: bc7c 713d 3ec2 6cbe c887 3bbe 1835 9e3b
000003f0: bb05 7c3d 35c6 97bd 9bb7 573e c133 1abd
-0.16559389 -0.26391456 -0.058301788 -0.02010327 -0.07551955 -0.013931967 0.051414475 0.07543749
0.4138168 -0.15131345 0.108998984 0.059905622 -0.3374819 0.06746781 0.03887989 -0.1422259
-0.11166009 0.060892902 -0.009500568 0.0045045437 -0.21509676 0.017732214 0.0568227 0.024260089
0.010310899 -0.030843584 0.43549448 0.054143764 0.0117473295 -0.35764208 0.030796189 -0.10184002
-0.1422476 0.015078709 -0.050753072 -0.121962264 -0.027052281 -0.019934764 0.044261053 0.0051353397
-0.045286983 -0.06599065 -0.100489035 -0.08137527 -0.11322932 0.047720686 -0.022989456 0.37631923
0.13547628 -0.017455358 -0.040953755 0.16467963 -0.06358495 0.035096683 -0.06087658 0.026923094
0.058009464 0.044870492 -0.07886358 -0.037002526 -0.18092833 -0.18529966 0.30853108 0.018988246
0.283396 0.056337614 -0.07174078 0.03472036 -0.012205234 -0.10678176 0.08405613 0.051422585
0.39203438 0.113417946 0.01813109 0.2070272 -0.10616888 -0.005870229 -0.25837088 -0.2868177
0.049369954 -0.02686632 -0.07683833 0.113365546 -0.059001755 -0.13061029 -0.019110942 -0.08455337
-0.15613338 0.14949435 -0.034949753 0.12591937 0.018465245 0.0811216 -0.092502505 -0.05114008
-0.045753177 -0.21000214 0.044319484 0.19935642 -0.0047091204 -0.007466004 0.06667862 0.052858695
0.13743162 0.14323698 -0.088773414 0.20640755 -0.1914859 -0.32490253 -0.03939046 -0.09553508
-0.15585493 -0.09868634 0.12268876 0.022408286 -0.16798596 -0.09450113 -0.1789837 -0.1742903
0.07152531 -0.123296574 -0.2281483 0.045352496 0.06757853 0.09030079 -0.005205179 -0.077891335
0.10255795 0.043912575 -0.12017479 -0.0027082467 0.14525537 0.09055856 -0.063829854 -0.020393891
-0.06417625 0.07650777 0.0421748 0.11818512 0.06917703 -0.1389598 -0.057053808 0.13473468
-0.07374818 0.09468744 -0.09058401 -0.032759707 -0.010085089 0.04246611 -0.17969228 -0.03524751
0.09764641 0.046122763 -0.027398657 -0.0922178 -0.016662028 0.0020564524 -0.06818033 0.06200814
-0.11029214 -0.10255144 -0.14124179 -0.055093065 -0.12075453 0.019474361 -0.20139879 -0.09217464
-0.11782757 -0.030592626 0.09817949 -0.015533646 -0.04035799 -0.007558333 -0.062815204 0.04382606
0.07689533 -0.027783409 0.10077221 0.06272792 -0.0027494489 0.13290274 0.01598319 -0.003927085
0.06199751 0.006796055 0.028164614 0.0053316825 0.032540992 0.11864769 -0.031684298 0.02120834
0.16556479 -0.01414959 -0.015292851 -0.081373386 -0.009874523 0.07104471 0.032837495 -0.0023681016
0.039859984 -0.28860214 -0.055028386 0.07143821 0.11304654 -0.03121843 -0.017784076 0.04116208
0.065736026 -0.009887517 -0.11317572 -0.024553237 0.09270661 0.018511718 0.078558326 0.0019351864
0.26563606 0.13118958 0.22113237 -0.11290438 0.16561763 0.19013771 0.0043490864 0.20408724
-0.051726375 -0.013839396 0.045572992 0.16008154 0.002350137 0.026661316 0.13116671 0.14677438
0.11408274 0.21204302 0.027242059 -0.012500825 -0.041768685 0.101503864 -0.06646783 -0.044794414
-0.159706 -0.05853149 0.025047211 -0.07262258 -0.017321685 0.018477036 0.028173285 0.09345192
0.058956847 -0.23120973 -0.18313515 0.0048281066 0.061528903 -0.07410852 0.21066134 -0.037647013

conv2.bias f4 [16]
00000000: 13fb 433c ec87 21be e018 8ebd 1083 ddbd
00000010: 4942 37be a38b 303d 2ded 213d f703 09be
00000020: 2f89 413d bee1 d7bd b32b d0bd faba 903c
00000030: e047 463e fed8 d8bd b833 c0bd e10b 73bd
0.011961716 -0.15774506 -0.06938338 -0.10816014 -0.1789638 0.043101918 0.03953283 -0.13380419
0.04724997 -0.10541104 -0.10164585 0.017667282 0.19363356 -0.10588263 -0.093848646 -0.0593375

conv3.weight f4 [32, 16, 3, 3]
00000000: b905 553d 2243 9b3d 9d8a c7bd aa29 583d
00000010: 6e08 4f3d f7d0 663d 5c1f 1f3c d960 173c
00000020: d7f3 fdbd 8ae1 02be ae7f a63c eae8 7dbc
00000030: 41f3 cbbd f015 23bd 4eb6 cbbd 4c6e cab9
00000040: 4933 06bd 581d 44bd fde4 45bd 2758 97bd
00000050: 4ccb 2dbe a642 28bd 450f 31bc 49da ed3d
00000060: 0f55 633d 24fa 873d eabb 20ba ec3f 20bd
00000070: 3103 90bd 5783 12bd 74f0 343d cc3e 333c
00000080: de0c 9bbc b58e 293d 1099 b7bc bf66 9d3d
00000090: 3d9a 8e3c fd19 e23d d810 08be 743d b8bd
000000a0: 36b9 bdbd 133a eabd 04b5 25bd 11c9 c3bd
000000b0: a34f f9bd 2634 b1bd e3a3 703d 4a0f 6cbc
000000c0: 5ba4 f6bd 411d bf3d 7118 813d 8b1f 3ebd
000000d0: 9a51 423d bc70 093e f8b4 be3d e6b9 34be
000000e0: cb51 793e d73d 053e a407 823c 6b2e 5e3e
000000f0: 7cea 093e 892f bb3d ff11 003e c8d1 1b3d
00000100: e6f0 bb3d ce98 553d bc60 f03b dfec aa3c
00000110: 1a03 be3d 0c69 f9bd 8500 03bd b3c1 b23b
00000120: a183 34be ab24 14be f1c0 c03d 02b4 40bd
00000130: 15df 353d 3db7 37bb 8f3b 463e d850 b9bc
00000140: 4994 40bc 5909 9ebd e46f b5bd 4106 abbd
00000150: a9f9 ccbd 1381 2cbe bf82 abbd 36ac 94be
00000160: 6446 15be 0bb8 9c3d f7cd 12bc 22d5 b13c
00000170: 178f 763c d532 3ebd 884e d5bc ccae ac3d
00000180: f5f9 8cbe 7025 193b 431b fcbd 94c6 703e
00000190: 7944 093d 28bb febd 3e39 d93d 4eea 423d
000001a0: f00c 713d 2892 3e3d 523b 0f3e 2805 353d
000001b0: 3371 553e 7f2c 703d 235f 6b3e c168 b23d
000001c0: 877e 943d 19c3 f03d 9830 c23d 8597 10bd
000001d0: 1672 ea3d 8d87 f73d c3b9 a13d 41cf 6c3d
000001e0: 245f 27be 6d23 ae3c d7bb 073d 45a6 57bd
000001f0: 9ab9 8b3b 8918 2e3d bc32 e23b f46a 5bbe
00000200: 719c 29be e68b ec3d 1f70 93bd a539 583d
00000210: 0277 9f3e e63f 853e 613d 773e 8187 60bc
00000220: e6af 15bd 8b77 1e39 d70b b9bb df4b 003e
00000230: 15fb fa3a 12f5 1fbd 5fcf 6abd 52d3 7d3d
00000240: 6d9b 07be 8c84 abbc 93e1 393d 0a04 42be
00000250: 613f 2f3d 9cf7 073e 0466 343d e6dc a83c
00000260: 0416 453e a17d 4d3d b35d 9b3d 10dc ed3b
00000270: e34b 113e df4d 67bd be07 873d 1f7c aebc
00000280: e28a 083e bf44 d93c e46f a83c 7731 44bb
00000290: c81f 4ebc d570 bcbd 818b e4bd 545c 41bd
000002a0: 8687 6d3d 15b5 30bc a4d4 bf3c dc45 43be
000002b0: 4e7c 4abd 8774 81bd 3abb f4bd ffb0 56bd
000002c0: b9eb 98bd 16a7 80bd b770 403d 802a c7bd
000002d0: 2f2e bf3d 5814 343e 8199 ec3d db93 07bd
000002e0: 3add dabb 866f 27bc d781 253d 7719 e73d
000002f0: 2346 9e3d 943e 143e b9ea 11bd f7bf 35bc
00000300: 9add d13d fcb8 abbd 45b8 2cbd 64fc 763c
00000310: 5a23 8c3c 6e0c 30be 0a62 9c3c 73d7 313d
00000320: 269e 6abe b002 373d 0ce9 babd bb2d f6bd
00000330: 4be7 2f3c 90ff 0bbe 61fb 85bc fc93 f6bd
00000340: 8619 11be 552f 8bbe c609 fcbc 736a 063d
00000350: de07 02bd 5133 21be efcf efbb 9411 d83a
00000360: 01d9 ff3d adc4 393e 3671 b63d 9cb8 623d
00000370: 7c94 d93c 3eff b6bd 1968 e3bd fd88 a7bd
00000380: 5655 bf3c 363b 5e3e 2003 463d fbcd 9f3d
00000390: 78f5 d13c 8992 af3c 624b a43d 2f37 713e
000003a0: a2f6 cb3d b591 34bd 25c7 9a3d 0921 b0bc
000003b0: e357 783c b206 55bd 14f8 193e 66b8 663d
000003c0: 45c9 b33d b205 08bd 017b 3a3e 181c b2be
000003d0: d99c 4ebd 3d5e af3c e293 abbd 1046 193d
000003e0: 6b56 ebb9 7585 a93b e825 72be 5fba 0fbe
000003f0: 1646 70be 3a66 91bd 6242 d6bd 63ee 7fbe
0.05200741 0.07581164 -0.09743235 0.05277411 0.05054515 0.05635163 0.0097120665 0.009239399
-0.124000244 -0.12781349 0.020324554 -0.015497426 -0.099585064 -0.039815843 -0.09946881 -0.0003861062
-0.032763753 -0.047879547 -0.048314083 -0.073898606 -0.16972083 -0.041079186 -0.010806863 0.116139
0.05550104 0.066395074 -0.0006131517 -0.03912346 -0.07031859 -0.035769787 0.044174626 0.010940265
-0.018927034 0.04139586 -0.022411853 0.07685613 0.01740753 0.11040113 -0.13287675 -0.08996096
-0.09263842 -0.11436858 -0.040455833 -0.09559835 -0.121733926 -0.08652525 0.058750045 -0.014407942
-0.12043067 0.093317516 0.0630349 -0.0464168 0.047441103 0.13421911 0.09311861 -0.1764904
0.24347608 0.13011871 0.015872784 0.21697395 0.13468355 0.09139926 0.12506865 0.03804186
0.09176807 0.05214768 0.0073357504 0.020864902 0.09277935 -0.12178239 -0.031982917 0.0054552197
-0.17628337 -0.14467113 0.09411801 -0.04704667 0.0444022 -0.0028032803 0.19358657 -0.022621557
-0.011754104 -0.07716627 -0.08859232 -0.08350802 -0.100085564 -0.16846113 -0.08374547 -0.29037637
-0.14577633 0.07652291 -0.008960239 0.021708075 0.015048764 -0.046435196 -0.026038423 0.08431777
-0.27534452 0.0023368262 -0.12309887 0.23513252 0.033512566 -0.12438041 0.10606621 0.04758673
0.05885023 0.046526104 0.13987473 0.04419437 0.20843963 0.058636185 0.2298551 0.087113865
0.07250696 0.11755962 0.09481925 -0.03530075 0.114475414 0.12086401 0.07896759 0.05781484
-0.16344887 0.021257127 0.033138122 -0.0526488 0.004264069 0.042503867 0.0069030207 -0.21427518
-0.16563584 0.11550121 -0.0719912 0.05278935 0.31145483 0.26025313 0.24144508 -0.013704182
-0.036544703 0.00015112587 -0.0056471634 0.12528943 0.0019148315 -0.039052077 -0.05732667 0.06196911
-0.13242884 -0.020937227 0.04538114 -0.18946853 0.042785052 0.13278049 0.044042602 0.020613145
0.1924668 0.050168637 0.07586231 0.0072588995 0.14189105 -0.056470748 0.065932736 -0.02129942
0.1333423 0.026522039 0.020561166 -0.002993671 -0.012580819 -0.092012085 -0.11159421 -0.04720719
0.057990573 -0.010785361 0.023416825 -0.19069618 -0.049434952 -0.06321054 -0.11949773 -0.05241489
-0.074668355 -0.06281869 0.046982493 -0.09724903 0.09334981 0.17585886 0.11552716 -0.03309999
-0.0066792043 -0.01021946 0.040407028 0.11284154 0.07728221 0.14476997 -0.03562424 -0.011093131
0.10247345 -0.08384892 -0.04216792 0.015074823 0.0171067 -0.17192242 0.019089717 0.04341836
-0.22911891 0.044680297 -0.091264814 -0.12020441 0.010736297 -0.13671708 -0.016355218 -0.120399445
-0.14169893 -0.2718455 -0.03076638 0.03281636 -0.031745784 -0.15742232 -0.007318489 0.0016484731
0.12492562 0.18141432 0.08908312 0.05535184 0.02656006 -0.08935402 -0.111038394 -0.08180425
0.023356121 0.21702275 0.048342824 0.078029595 0.025629744 0.021432178 0.08022191 0.23556207
0.09959151 -0.04408427 0.07557515 -0.021500127 0.015157673 -0.05200834 0.1503604 0.0563282
0.087786235 -0.033208556 0.18210985 -0.3478706 -0.05044255 0.021407241 -0.08377816 0.037420332
-0.0004488708 0.00517338 -0.23647273 -0.14035939 -0.23464236 -0.07099576 -0.1046188 -0.24993281

conv3.bias f4 [32]
00000000: c5f1 093d f3e1 3b3e c9a3 913c 9037 05be
00000010: 11c7 35bd 7099 51bb 614c 41bd 921f 083d
00000020: c932 4f3c f00c d9bd 72c0 3abe 34d8 c63d
00000030: 466f 3f3c 427f 63bd 5c31 40bd 26ea 083c
00000040: b5f1 0e3e 8e17 273c a4cb 1bbd b53d 383e
00000050: dedb 3fbc 8038 32be 2a82 3e3d 9358 083d
00000060: c847 debc 6da2 7f3d 090b d23d 5ef1 a8bc
00000070: a7f4 3a3d f8b9 283d 1cf6 ecbc f40d babc
0.033677835 0.18347912 0.017778294 -0.13009477 -0.044379298 -0.0031982325 -0.04719198 0.033233233
0.0126463855 -0.10598171 -0.18237475 0.09709206 0.0116842445 -0.055541284 -0.046922073 0.008356607
0.13959391 0.010198487 -0.038036004 0.1799229 -0.011710135 -0.17404366 0.046510853 0.033287596
-0.027133837 0.06241076 0.10256011 -0.020622905 0.045643475 0.04119298 -0.028925948 -0.022711731

conv4_1.weight f4 [2, 32, 1, 1]
00000000: d96e d23f c546 67bf 5961 8c3f c275 85bd
00000010: c045 adbf 8ee9 f8be c2bd f1be 3d62 50bf
00000020: 42d7 b3be 564a 36bf c770 753f 8188 f73f
00000030: ce01 10bf a583 32bf e95a 2fbf 3d7b 51c0
00000040: 40bc d6bd 4abc 143e d635 aabe 1ca8 6ebe
00000050: bf3f 26bf d66b ce3e 1e8c ae3e 5952 86bf
00000060: 9bf5 95be 1522 0fbf 01e5 1a3f c744 f6bc
00000070: 5d4b 6c3f 5ca5 21c0 ccf2 123f 802a 9cbf
00000080: 1a60 7fbf 2bb3 833e e99d 12bf 0700 f7be
00000090: 17d9 68bf 2864 08bf 736b e3be 5e79 0ebd
000000a0: 020c 853f 1b33 2a3f d48a 0240 0d86 89bf
000000b0: c273 433f bcaa 1ebf fa9b e5bf feb4 f33b
000000c0: c493 bdbf 508a 09c0 2d7a c83f 2469 2bc0
000000d0: dff3 31c0 95e5 6ebf af7d f33f 888d 333d
000000e0: dfa5 083d 6ee6 473e 743e 0b3f 2ad2 a23d
000000f0: 268d edbf 8ce6 7bbf 5573 ee3e 9eb7 3b40
1.6440078 -0.9034236 1.0967208 -0.06516601 -1.3536911 -0.48615688 -0.47215086 -0.813999
-0.35125166 -0.7120718 0.9587521 1.9338533 -0.56252754 -0.69732124 -0.6849809 -3.2731469
-0.104851246 0.14524952 -0.332442 -0.23306316 -0.6494102 0.40316647 0.34091276 -1.049388
-0.29288945 -0.5591138 0.6050568 -0.030062092 0.92302495 -2.5257177 0.5740173 -1.220047
-0.99756014 0.25722632 -0.572722 -0.48242208 -0.9095625 -0.53277826 -0.44417915 -0.034783714
1.039429 0.6648423 2.0397234 -1.0744034 0.7634851 -0.6197927 -1.7938225 0.0074373474
-1.481072 -2.149067 1.5662285 -2.6782923 -2.7805097 -0.93319064 1.902273 0.043836147
0.033361312 0.19521496 0.5439217 0.07950242 -1.85587 -0.9839866 0.46572366 2.933082

conv4_1.bias f4 [2]
00000000: 26aa 1dbe 25f3 3fbe
-0.15396938 -0.18745096

conv4_2.weight f4 [4, 32, 1, 1]
00000000: ab58 84bf d552 9ebe 2450 633f e1cd 8abf
00000010: 21c5 2d3d 52a6 0ebf b29e 653e d72f b8be
00000020: 5a21 6bbd 83ff 943f 4fec 1ebf baf7 d1be
00000030: 6a85 dbbe fa37 04bf a975 713f f9a4 803e
00000040: 3443 b23d c7fc 9a3e 6ee4 98be 98ed f6be
00000050: 080f 9a3e f384 903e def3 d9be 3202 a13e
00000060: 1624 9d3e b9ea febe c464 a43e 82d5 7f3f
00000070: 4bfc 4fbf 0488 df3e 6c48 963f f757 26be
00000080: c71f 0abe 228c 18bf 90ab 57be 123b 0cbf
00000090: b4f0 413f 392c 7a3f 32d5 aebc ddc5 5a3e
000000a0: fa8c 45be d9b9 d3be 2756 27bf a0c2 82bf
000000b0: ad66 743f 642e d83e fa3e 7d3e c638 9cbc
000000c0: a420 02bf 5903 7f3e a75a e63e ac32 453d
000000d0: b71b 6abe b241 d53f 96d2 953f b9c0 393e
000000e0: 6013 4a3f f21e fb3e 658d bfbf d049 193c
000000f0: 2988 843f ffbc b93e a63c 06bf f7b4 09be
00000100: bb6a 87be 4c8c bc3e 5849 383f c062 cbbc
00000110: 239c 84be d520 223e d8bc 1e3f 941c 623e
00000120: 2d21 8f3e d304 233f a6f5 96bf 4267 debe
00000130: bc23 19bf f96b f0be 52e3 d83d 6575 fcbe
00000140: 876c 8c39 7972 9d3e 5d01 15bf e880 e3be
00000150: bd40 a23b e0c9 34bc 5783 6bbe 2914 76bc
00000160: e601 f43d 1473 61be e66e a63e 8770 533e
00000170: 6f43 86bd e31a 783f b79c 0cbf 4622 19bf
00000180: 44bd a7be 9abc 8cbe f9db 303f 093b 1dbf
00000190: c906 12bf 0f41 d33e 5758 493e e257 5ebf
000001a0: ce35 8fbf fda9 e5bf f02b c7be 6191 e9be
000001b0: 996c c03e 1c86 4abf 6797 8ebf c24d 26be
000001c0: 459d 893d bda4 af3e 2a90 34be b719 1fbf
000001d0: 90df 7abf 40f8 73bd 3103 8d3e 60fc 0bbf
000001e0: ef26 18bc 3db7 b23e 9e3f 003f e9f8 07bf
000001f0: 91a7 653e e235 433f 52dc 063e 8ea5 f0be
-1.0339559 -0.3092257 0.8879416 -1.0844079 0.042424325 -0.55722535 0.22423819 -0.35974
-0.057404853 1.1640476 -0.6207933 -0.41009313 -0.42875224 -0.51647913 0.9432016 0.25125864
0.08704224 0.3027098 -0.29861778 -0.48228145 0.30089593 0.28226432 -0.42568868 0.31446987
0.30691594 -0.49788454 0.32108128 0.9993516 -0.81244344 0.4365846 1.1740851 -0.16244493
-0.13488685 -0.59588826 -0.2106154 -0.54777634 0.7575791 0.9772373 -0.021341894 0.21364541
-0.1929206 -0.41352728 -0.65365833 -1.0215645 0.9546917 0.42222893 0.24731055 -0.01907004
-0.50831056 0.24903621 0.44991037 0.048144028 -0.22862135 1.6660674 1.1704891 0.18139924
0.78935814 0.49047047 -1.4965025 0.009355977 1.0354053 0.36277005 -0.5243629 -0.13447939
-0.26448616 0.36825788 0.71986914 -0.024827361 -0.25900373 0.15832837 0.620069 0.22081214
0.27955 0.63679236 -1.1793716 -0.43438154 -0.5982015 -0.46957377 0.10590233 -0.49308315
0.0002678374 0.30751398 -0.58205205 -0.44434285 0.004951565 -0.011034459 -0.22999321 -0.015019455
0.119144246 -0.22016555 0.32506484 0.20648395 -0.06555831 0.96916026 -0.5492663 -0.5981792
-0.32761586 -0.27487642 0.6908565 -0.61418205 -0.57041603 0.41260573 0.19662605 -0.8685285
-1.1188295 -1.7942501 -0.3890071 -0.45618728 0.37582853 -0.79110885 -1.1139954 -0.162406
0.0671945 0.34305373 -0.17633119 -0.6214861 -0.9799738 -0.05956292 0.27541497 -0.5468197
-0.009286626 0.34905425 0.5009707 -0.5311418 0.22427203 0.76254094 0.13169983 -0.47001308

conv4_2.bias f4 [4]
00000000: 8378 e23d 329d 8e3d 53f9 133e 3ebc 96bd
0.11058142 0.069635764 0.14450578 -0.07360123

conv4_3.weight f4 [10, 32, 1, 1]
00000000: 640d bfbe 5bf2 a5be 5255 b83e 874e 01bf
00000010: 3ad7 173f f21f e6bd e24f 11bf 5906 1a3f
00000020: 8564 0fbe 2685 5cbd 73ad bb3e 96e0 123b
00000030: 7320 583e c387 e9be eb3d 43be 9f96 a8bc
00000040: 02e3 d03e 5487 353d 2f10 673d a981 ce3e
00000050: e755 21bf 91bc fe3d cbe3 df3d b6fd 583e
00000060: d8e3 1f3e bb57 133f 0edd d3bd f58b 58be
00000070: 5268 1c3f f8bb 6a3e d768 9dbd 2138 ec3e
00000080: 612f ea3d 1f2f 943e 889a 143d 395f 0e3e
00000090: 6cf9 83be b384 cbbe 5829 15bf 55f5 34bf
000000a0: 2c6c 43be 866e b63d ef28 123f 2cae 5dbe
000000b0: 7cb5 8f3c 286a 803d 7cc3 0a3f b471 613f
000000c0: 6843 f8be dc04 b73e ef6e cb3e 1278 233f
000000d0: 79e7 223e 5a74 d43d 6683 dbbe aa74 7fbf
000000e0: 7502 f53d 9546 f43e a52b 993e 6ecd bfbc
000000f0: 3ec0 28be 3d3b ccbd 4d3d a1be 1729 7bbd
00000100: 667b a6be 6359 9d3e 9c34 003e 76fb b7bd
00000110: a5b9 273f 854d 78be bbaf 8ebe 374a cb3e
00000120: a6b3 d3bd 5802 8e3c c31b fc3c bcd2 f13e
00000130: 5a94 f53e 1d38 06bf d20c 67bc 9e75 8f3d
00000140: d8c0 be3e e9e0 4a3e 7b23 e9be 2f93 6d3e
00000150: 5c97 283f ffca 0abf eeee 72be 1471 f6bd
00000160: 55f9 a8be 6d15 31be 6911 78bd f6c8 6abf
00000170: bd4c 23bf 948b bcbd 64a8 b2be 4c16 8a3e
00000180: 63b8 c33d 46d1 273e 94a6 a8bd e169 80be
00000190: 111a b7bc 805a ad3e b041 bdbe 8ecf a2be
000001a0: 25a2 23be 25a7 2c3e 50c2 92bf 2e46 993e
000001b0: 0ac3 093f 37c5 033f d393 183c ae1c 523e
000001c0: b4d6 15bf 45b7 f1be 52ca 85be 4f96 7bbe
000001d0: a772 c63d 10fc 803d 9997 9a3e 40ee aa3e
000001e0: dc8a b9be 586c 0cbe 0b02 8c3e 7946 2cbe
000001f0: 84d4 1cbe 98f9 643f 042b 983d 7286 aabe
00000200: 1d0b 593e 8d8a a53c 2d9a 0ebf 68c9 4bbe
00000210: 25d5 38bb c2ae 083f 45ea 95bd 03f9 bd3e
00000220: 36f4 38be ef5b 013e 8d25 6bbe 0c9b c13e
00000230: 390e 1fbf 9691 ce3e 71d9 9abe 7a0d 14be
00000240: c1ba 423c 67b6 9dbe 7d13 42bf 18e0 813e
00000250: e8df afbe d25f 613e c9fd 703e 0726 ad3e
00000260: 1353 8b3e 07d9 da3e 7cdb eebe 1631 1e3e
00000270: 2791 5ebd 40a6 203f af89 f03e 2679 043f
00000280: 0e1d 873d 41c6 3c3f 62e0 23bd 2d5e 98be
00000290: 961c f7be fe0f 6a3c 2961 9abe e1bb 68be
000002a0: 6742 6bbe 0283 2b3f 3920 e3be 2b4f 29be
000002b0: a8ab 32be 13ec 84be 26f0 f03e e5c4 63be
000002c0: e820 e1bd eb2b d9be e34e 65be c9a6 60be
000002d0: af85 cbbe 8ddc 363e 10dc 37bd 1121 3abf
000002e0: 4a0f eb3d 0902 8dbe be91 4f3f 3197 29be
000002f0: 180c 75be 1103 95bd 1801 dbbd 26c7 14bf
00000300: 659e eabe ed6f 3d3e abaf f03e 00d3 f13e
00000310: 052c ee3b 6836 29bf 19b1 76be 97c8 223f
00000320: 64fb c03e 615a a8bd 89ed 13bf afd7 913c
00000330: 5515 5c3f c669 f2be 2cbe 2b3f 0d51 e63e
00000340: b866 a23e f6e5 aa3e 12d0 80be cf73 303e
00000350: dfb5 36bc 920a eebb 1760 af3c d100 59be
00000360: be5a 593e a439 ae3e be8b 82be 18da 91be
00000370: 26d0 043f 52bc 84be 8a4e c8be 3133 1a3f
00000380: bfcf 1abe 9f1d e1bc f720 16bf f182 b6be
00000390: ca1e 17bf 854c f23e b286 be3e 3b94 d2bd
000003a0: 3be7 12be f6da ffbe ce32 9abe cf61 51be
000003b0: b49c 2fbe 3755 e1bd 2ff2 5d3e 26bb 883e
000003c0: 77fc 6dbd 4eda e43e 784d b83e 8830 003f
000003d0: 32af 74bf a811 953e e550 5b3e 609d 9abd
000003e0: 5d29 02bf 173d 193f 719d f63e eee8 033d
000003f0: f5e6 fa3e d226 32be 8563 313e a8cd 4d3e
-0.37314904 -0.32411465 0.36002594 -0.5051045 0.59312785 -0.11236562 -0.56762516 0.60165936
-0.14003189 -0.053837918 0.3665577 0.0022411696 0.21106128 -0.4561139 -0.19066589 -0.020579634
0.40798193 0.044318512 0.05641192 0.40333298 -0.630217 0.1243831 0.1093212 0.21190533
0.15614259 0.5755574 -0.10344897 -0.2114714 0.6109668 0.22923267 -0.07686012 0.46136573
0.11434818 0.289422 0.036280185 0.13903512 -0.2577623 -0.3974968 -0.5826621 -0.70686847
-0.19084233 0.089077994 0.5709371 -0.21648473 0.017542593 0.06270248 0.54204535 0.8806412
-0.48488927 0.35745895 0.39733073 0.6385509 0.15908612 0.10373755 -0.42873687 -0.9978739
0.11963359 0.477101 0.2991611 -0.023413386 -0.16479585 -0.09972236 -0.3149208 -0.061318483
-0.3251602 0.3073226 0.12520069 -0.08983509 0.65517646 -0.24248321 -0.27868447 0.3970506
-0.103369996 0.017335102 0.030774957 0.4723109 0.47964746 -0.5242937 -0.014102178 0.070048556
0.37256503 0.19812359 -0.45534882 0.23200677 0.65855956 -0.54216 -0.23723957 -0.12033287
-0.33002725 -0.1729333 -0.06056348 -0.9171289 -0.6378897 -0.0920631 -0.34894097 0.26970136
0.09556653 0.16388425 -0.08234897 -0.2508078 -0.022351297 0.3385811 -0.36964178 -0.31798977
-0.15979822 0.16860636 -1.146555 0.29936355 0.5381323 0.514728 0.009312588 0.20518753
-0.58530736 -0.47210136 -0.2613092 -0.24569057 0.09689837 0.06298077 0.30193785 0.33384895
-0.36238754 -0.13713205 0.2734531 -0.16823758 -0.15315443 0.8944335 0.074300796 -0.333057
0.21195646 0.020207668 -0.55704004 -0.19901049 -0.0028203216 0.5339166 -0.07320074 0.37104043
-0.18061909 0.12632726 -0.22963543 0.37813604 -0.6213108 0.40345448 -0.3024402 -0.14458266
0.011885346 -0.30803224 -0.75810987 0.25366282 -0.34350514 0.22009209 0.23534311 0.33818075
0.27211818 0.42743704 -0.46651828 0.15448412 -0.054337647 0.6275368 0.46980044 0.5174736
0.065973386 0.7374001 -0.04000891 -0.2975935 -0.48263997 0.014286039 -0.30152252 -0.2272792
-0.22974549 0.6699678 -0.4436052 -0.16534106 -0.17448294 -0.2596136 0.4705822 -0.22243078
-0.109926045 -0.4241632 -0.22393374 -0.21938623 -0.3975043 0.17857571 -0.044887602 -0.72706705
0.114775255 -0.27540615 0.8108176 -0.16561581 -0.23930395 -0.072759755 -0.10693568 -0.58116376
-0.4582397 0.18499728 0.47009024 0.47231293 0.007268431 -0.6609864 -0.24090995 0.63587326
0.37691796 -0.082203634 -0.57784325 0.017803041 0.8597005 -0.47346324 0.67087054 0.44983712
0.31718993 0.3337857 -0.25158745 0.17231677 -0.01115176 -0.0072644437 0.021408124 -0.21191718
0.21226022 0.3402835 -0.2549724 -0.28486705 0.5188011 -0.25924927 -0.3912242 0.6023436
-0.15118311 -0.027479945 -0.5864405 -0.35646775 -0.59031355 0.47324005 0.3721214 -0.10282179
-0.1434602 -0.4997174 -0.30116886 -0.20447467 -0.17149621 -0.110025816 0.21674417 0.26705283
-0.058102097 0.44697803 0.35996604 0.5007405 -0.95579827 0.29115033 0.21417578 -0.07549548
-0.50844365 0.5985884 0.48166993 0.03220456 0.4900433 -0.17397621 0.1732312 0.20097983

conv4_3.bias f4 [10]
00000000: 461d 2cba a51d f0bd 34a2 053e aaf2 1d3d
00000010: 2c89 133e 27a7 d23b 391f 5b3d ba43 a6bc
00000020: 8dc7 123e 3b9f 573e
-0.00065656414 -0.11724404 0.13050157 0.0385615 0.14407796 0.0064286175 0.053496573 -0.020295966
0.14333935 0.21056835
