mtcnn_landmarks/infer_models/RNet.pt (torch, 409465 bytes, 14 tensors)

conv1.weight f4 [28, 3, 3, 3]
000000 34 a6 6b 3e 0a 46 be 3d 2c 32 90 3c 92 2e 97 3d
       0.2301262 0.09290703 0.017602049 0.073819295
000010 fb 47 8f 3d 05 2a 51 bc ec e2 24 be 94 2f 47 bc
       0.06996151 -0.012766366 -0.16102189 -0.01215734
000020 46 71 9b 3c 85 8d 82 bd 21 d9 c9 3d f6 71 2b be
       0.018974911 -0.06374649 0.09855867 -0.16742691
000030 26 75 00 3c 9b bf 3d be 80 56 1c 3c 78 39 fe bd
       0.00784043 -0.18530123 0.009542108 -0.12413305
000040 01 2c e0 bd 8d ad 11 be e6 64 9b 3c 62 79 5c 3e
       -0.10945893 -0.1422636 0.01896901 0.21530679
000050 0c 41 ef 3d 89 27 d7 3d 79 20 49 be fb 41 e6 3c
       0.116823286 0.105055876 -0.19641294 0.028107634
000060 a1 bf 79 bd bf 0e 42 3d 26 c0 aa 3c 18 90 c1 3d
       -0.060973767 0.047377344 0.020843577 0.09451312
000070 34 71 6c 3d 50 45 04 be 77 f7 a3 bd ee fa 2b bd
       0.057725146 -0.12917066 -0.080061845 -0.041987352
000080 d5 ca 8b bd 0a c8 a6 3d e2 2b c0 bb f2 7e 3d 3b
       -0.068257965 0.08143623 -0.0058646062 0.0028914777
000090 f5 52 78 bd bc 5b 20 bd 57 10 9b 3d 81 13 24 bd
       -0.06062599 -0.039149985 0.07571476 -0.040057663
0000a0 cb 02 54 bd 8c bf d0 bd 71 24 88 3d f7 1e 5d bc
       -0.051760476 -0.10192785 0.06647576 -0.013496152
0000b0 ca fa 36 3d c1 a1 51 bd f4 08 3b bd 55 89 11 3e
       0.044672765 -0.05117965 -0.045662835 0.14212544
0000c0 74 94 c9 bc d5 4a 2a bd 0b d5 be 3d a9 17 4b be
       -0.02460692 -0.04157527 0.093179785 -0.19833244
0000d0 01 fd f6 bd a8 93 27 be 9e 7f 6f bd bd c7 52 bd
       -0.120599754 -0.1636492 -0.058471315 -0.051460017
0000e0 b9 26 0a 3d 3d 27 13 3e 3c b6 8f 3d 7d 7e 15 be
       0.033728335 0.14370437 0.0701718 -0.14599033
0000f0 76 26 dd bb 23 1a 4d be 68 d6 bb 3c 73 22 1f 3e
       -0.0067489697 -0.20029502 0.022929385 0.15540485
000100 54 27 9f 3c ab 8c 3d bd 90 0e 75 bc f8 d0 5e 3d
       0.019427933 -0.04627673 -0.014957085 0.054398507
000110 ea 83 e5 bd 4a b9 0e 3e 55 af c8 3d 52 69 58 3e
       -0.11206801 0.1393787 0.09799067 0.21133927
000120 b8 66 e3 3d b6 73 c2 bc f3 b4 5b 3d 62 1f 20 bd
       0.111035764 -0.023736816 0.053639363 -0.03909243
000130 88 92 a3 bd 75 79 f1 bc 76 1f 9e bd 90 7d 49 be
       -0.07986933 -0.02947686 -0.077208444 -0.19676805
000140 3b 56 8f bd 0d 4d 90 bc aa fa 99 3b a6 71 62 3c
       -0.06998869 -0.017614866 0.004699071 0.013821041
000150 4e f4 a0 bc aa 0c 8e bb fd 0b e1 ba bf 2e a5 bc
       -0.019647744 -0.004335006 -0.001716971 -0.020163892
000160 46 7d c1 3c 73 d3 a2 3d ff 0c 49 3d 10 24 c1 3a
       0.023619305 0.07950487 0.04908466 0.0014735479
000170 f6 fd c7 bd 49 62 d5 bd ba 9f ef 3d ff f0 b5 bd
       -0.09765236 -0.10419137 0.11700387 -0.08883857
000180 36 58 0a be 50 12 ef 3c 19 19 7b bd 33 3b 3b be
       -0.13510212 0.029183537 -0.061303232 -0.18284301
000190 2d a5 4e bd c7 db ae 3c e4 44 46 3b c9 c9 de bd
       -0.050450493 0.021345032 0.0030253464 -0.10878331
0001a0 70 17 c8 3b ed 46 f7 3d 3c 9f 4b bd 8e 0b ce bd
       0.0061063096 0.12074075 -0.049712405 -0.10060798
0001b0 07 db 1c be 14 8a 94 bd 9f 55 29 3d f1 19 0d 3d
       -0.15317927 -0.07252899 0.04134142 0.034448568
0001c0 1c aa 89 3e 26 10 07 3e c0 3b fa 3c d7 95 91 3d
       0.26887596 0.13189754 0.03054607 0.07108658
0001d0 e9 f0 ed 3d 3e 58 10 3e 0a 60 8a bc 50 c5 e2 3a
       0.116182156 0.14096162 -0.016891498 0.0017301235
0001e0 ce 96 2a bd dd b4 e7 3d 89 71 eb 3d 69 34 9c 3d
       -0.041647725 0.11313794 0.114962645 0.07627184
0001f0 88 1e 1b 3d bf be d7 3c ef 38 fb bd fd 4a e8 3b
       0.037870914 0.026336072 -0.122667186 0.0070890174
000200 02 41 14 b9 5e 47 37 bd d3 1d b7 3d 4e 20 1e bc
       -0.00014138597 -0.044745795 0.089412354 -0.009651257
000210 de 09 08 be b8 df 5b 3b ce 37 ba bc ff 83 8e bd
       -0.13285014 0.0033550095 -0.022731688 -0.0695877
000220 12 99 f6 bd ec c3 c6 3d 37 01 0b bc 3c d6 f7 bd
       -0.120409146 0.09705338 -0.008484176 -0.12101409
000230 2e c3 c9 bc a3 5d 8e 3d 81 32 2b 3d 0f fd fc 3d
       -0.024629202 0.069514535 0.04179621 0.123529546
000240 54 5e 52 3d c9 49 bb 3e 83 9a 33 bd 71 4a 43 bd
       0.05135949 0.3657973 -0.043848526 -0.047678415
000250 1d aa 06 be 7c ca c0 bd da c8 16 bd 82 2c bb 3d
       -0.1315083 -0.09413621 -0.03681264 0.091393486
000260 d8 c8 3b 3e d7 7d 58 3d bc d8 e0 bc 57 3e 88 3d
       0.18338335 0.052854385 -0.027447097 0.066525154
000270 0b f8 0a bd 27 b7 8a bd 82 f1 0c be da 27 37 3d
       -0.03392796 -0.06773215 -0.13764003 0.04471574
000280 63 af 05 3c 2f e6 1e be 2e 3a 07 be 8f b7 0a bc
       0.008159491 -0.15517496 -0.13205788 -0.008466615
000290 51 8a 37 bd 41 e9 4f 3d f5 0b 0f 3d 98 80 e8 bd
       -0.044809643 0.050759558 0.034923512 -0.11352652
0002a0 8f 9d dd 3d 7f b7 07 3e 53 a3 4d 3d d3 a7 8f be
       0.108210675 0.13253592 0.050204586 -0.28057727
0002b0 f6 e9 db bc 5a 2e 95 bc df 5d 93 3d b0 88 05 be
       -0.02684496 -0.018210579 0.07195639 -0.13040423
0002c0 c7 dd 4a bd d4 d8 17 3e 22 b2 7a 3e e4 79 93 3c
       -0.04952791 0.14828807 0.24482015 0.018002458
0002d0 74 a3 76 3d 30 2f 31 be 99 45 73 bd bb c8 22 3e
       0.060214475 -0.17303157 -0.059392545 0.15896885
0002e0 9d 70 ce bd bd 01 30 bd d4 29 1f 3e 3d b9 ea 3d
       -0.10080073 -0.042970408 0.155433 0.11461113
0002f0 34 5c 39 3e de 1b 80 bc b3 85 5a bd 6b 3a 82 3c
       0.18101579 -0.015638288 -0.05335016 0.015896996
000300 96 7e e1 3c a9 45 26 be 63 4e 12 3d 09 84 99 bd
       0.027526181 -0.1623751 0.035719287 -0.07495887
000310 38 82 75 39 f7 f7 b1 3c d5 d3 54 3d 0d 8c 9a bd
       0.00023413531 0.021724684 0.05195983 -0.07546244
000320 de fe ce bd 76 e6 a5 3d 7b fa 27 be 08 cc 31 3d
       -0.10107206 0.081005976 -0.16404144 0.04340747
000330 2e f1 c2 3d aa 84 8d 3d eb 73 c9 3c 10 93 a7 3d
       0.095186576 0.06910069 0.024591407 0.08182347
000340 be 4b 68 be 2e 14 29 bd 1a f4 31 3e a5 7e d9 3d
       -0.22685143 -0.04127901 0.17378274 0.10619859
000350 de 4a d7 3b 4d 9b fa 3d d3 ba 08 3e da d2 01 3d
       0.006570204 0.122366525 0.13352518 0.031695224
000360 ae e2 17 3e ec d4 61 bc b7 c1 39 bd ae 19 7a 3d
       0.14832565 -0.013783675 -0.045350756 0.061059646
000370 1c 3c 02 3e 8d 86 4a 3d b8 64 f3 bc e6 82 d6 3c
       0.12718242 0.049444724 -0.029711112 0.026185464
000380 8a 70 83 bd 17 1e 23 bd 3d 3d 04 be 16 44 ce 3c
       -0.064179495 -0.039823618 -0.12913986 0.02517895
000390 c1 a1 94 bd ee 69 05 3d 1c 7d 03 be bf 4b 8b bd
       -0.072574146 0.032571726 -0.12840694 -0.06801557
0003a0 10 3f 85 3d 68 e6 32 bd c8 70 00 3e b9 41 3e bd
       0.06506169 -0.043676764 0.12543023 -0.046449397
0003b0 84 8a e0 bd 51 04 28 bd 53 dd 90 3d db 8a 25 be
       -0.1096392 -0.04101974 0.07073464 -0.1616625
0003c0 40 24 12 3d 47 06 4b 3e f6 6f 54 be 3e 86 4f 3d
       0.035679102 0.19826613 -0.20745835 0.050665133
0003d0 2c 0d 2a 3e e0 2c 63 3d 97 8f 82 bd 63 aa 2a 3e
       0.16606587 0.055462718 -0.06375044 0.1666656
0003e0 ed ab 95 3d b8 ea a9 3c 84 3c ca 3d 5c 0f 97 3e
       0.07308183 0.020741805 0.09874824 0.29503906
0003f0 5d 72 e1 3c 51 3b 36 3d a9 bc 19 be 1a e2 85 bd
       0.027520353 0.044490162 -0.15013374 -0.06537266

conv1.bias f4 [28]
000000 29 68 9f bc ac 1e e1 bd 65 86 8c 3d 16 87 d6 3d
       -0.019458847 -0.10992178 0.06861571 0.10474984
000010 7f 07 4a 3e 9f 03 1b 3e ac 44 3e be f0 90 6d 3c
       0.19729422 0.151381 -0.18580884 0.014499888
000020 0f d8 44 bd 53 ab 20 3e 78 74 1d be 26 e3 2c 3d
       -0.048057612 0.15690355 -0.1537646 0.042208813
000030 23 e3 cd 3d 71 99 55 be 5d 26 55 be 19 e6 b9 bd
       0.100530885 -0.20859315 -0.20815416 -0.09077091
000040 fc 51 c1 bc aa e5 5d bd 0d 8b 3c bc ee 1f 85 3d
       -0.023598664 -0.054174103 -0.011507762 0.06500231
000050 4c ce d3 3d 34 85 f8 3d 5b c8 bb bd 2d 7c 3e 3e
       0.103420824 0.121347815 -0.09169074 0.18602057
000060 05 0d 90 3d 77 bd 28 3e 9b 8d 7b be 18 fe ae 3d
       0.07033733 0.16478525 -0.24565737 0.08544558

conv2.weight f4 [48, 28, 3, 3]
000000 1b 5b 4d 3b a9 7b b9 bc ee e6 2e 3d 34 65 25 3b
       0.003133482 -0.022641974 0.0427007 0.0025237324
000010 d1 0b ff bc 01 db 45 b9 ad 6f 05 3c 46 8b b2 bd
       -0.031133564 -0.0001886897 0.008144301 -0.087179706
000020 e5 51 9e 3c 5e ef 00 bd 0f 4f 94 bd e6 34 a4 3c
       0.01932616 -0.03147828 -0.07241642 0.020044755
000030 0c 39 87 bc 87 5d c4 3d 83 78 16 3d d5 71 b9 bc
       -0.016506694 0.095881514 0.036736023 -0.022637287
000040 68 13 c7 3d 0a 96 d9 3c 61 a3 e6 3d 2a 45 20 3d
       0.09720498 0.026560802 0.11261631 0.03912846
000050 b8 ee f4 bc c2 32 00 3b a5 ab a1 bc ba 66 c2 bb
       -0.029898986 0.0019561504 -0.019735167 -0.005932656
000060 18 af 0d bc bc 57 ba bc d0 a1 95 3c 28 70 02 bd
       -0.008647703 -0.022746913 0.018265635 -0.03184524
000070 c7 00 1b 3d f9 d0 34 bd ad 8b 88 3d 61 54 1d bb
       0.03784254 -0.044144604 0.06667266 -0.0024006593
000080 43 cf 86 bc 07 e9 15 bd d0 52 b6 bc ec 47 d2 3c
       -0.016456252 -0.036599185 -0.022256285 0.02566906
000090 ee 44 a1 3d b0 2d 6b 3e e6 31 32 3e ef e7 99 3d
       0.078744754 0.22966647 0.17401847 0.07514941
0000a0 73 95 7c bc 07 d8 fb bc b6 df 92 3c 60 4c 2d 3e
       -0.015416491 -0.030742658 0.01792894 0.16923666
0000b0 8d ac a5 bd 48 73 d7 bd ef 50 51 bd de 8e c1 bc
       -0.08089552 -0.10520035 -0.051102575 -0.023627695
0000c0 f6 bd ea bc 49 61 e4 bd 87 17 73 bd 88 2a 4a bc
       -0.028655034 -0.11151368 -0.05934861 -0.012339242
0000d0 9d bb fa bc 7d fc 53 bd b0 b1 89 bc 0b 1d 92 bd
       -0.03060704 -0.051754463 -0.01680836 -0.07134446
0000e0 77 1a 98 bd de 1a d7 bc 47 b9 e3 3d 3d 34 bf bd
       -0.07426923 -0.026257928 0.11119323 -0.093361355
0000f0 ee af 3b 3d a0 7e 99 3d 8a 04 f2 3c 0b 28 c2 3d
       0.045822076 0.07494855 0.02954318 0.09480294
000100 b5 3a 8f bd 0a 3d 8e bb 83 df c7 bd 84 23 56 bc
       -0.06993619 -0.0043407725 -0.09759428 -0.013069991
000110 24 e5 44 bc 77 bf 74 bd 69 99 84 bd 2d e4 95 3b
       -0.012017522 -0.059752908 -0.06474573 0.00457432
000120 ba d4 4c 3d a8 76 a0 bd 88 fe f2 bd db b2 aa bd
       0.05000756 -0.07835132 -0.11864954 -0.08334895
000130 a2 8d b9 bd 37 89 5b 3c 86 41 ac bd f3 ef 9f bd
       -0.090602174 0.013399414 -0.08410935 -0.078094386
000140 e9 81 c5 bc 2b 42 c7 3d 4e a2 90 bd 7c 08 9d bd
       -0.024109798 0.097294174 -0.07062207 -0.07667634
000150 f0 5e c6 3d 57 4b 00 3e a4 70 0e bd ad 0f 7e 3c
       0.09686077 0.1252874 -0.03477539 0.015506667
000160 88 b4 05 3d ce 1a ce 3c e3 bf e7 3d 77 0c 86 3d
       0.03264287 0.025159266 0.11315896 0.06545346
000170 e6 70 34 bd 55 5c f0 3d e5 e2 c7 3c 30 75 0b bd
       -0.04405298 0.11736361 0.024400184 -0.034047306
000180 4b bf 60 3d 06 f4 01 3e c8 54 b2 3d 09 59 ec 3c
       0.05486993 0.12690744 0.08707577 0.028851049
000190 64 84 21 3e 32 af 1d 3d 2f ab 11 3e 2b d6 fc 3d
       0.1577316 0.038497157 0.14225458 0.12345537
0001a0 28 57 07 3e 3b b0 a8 3c e9 df dc bd 15 d5 91 bc
       0.13216841 0.020591846 -0.10784895 -0.0178018
0001b0 88 40 7f 3d 56 5d 08 bd 37 34 e2 bd e3 18 df bd
       0.0623174 -0.033292137 -0.110451154 -0.10893419
0001c0 75 d2 e0 3b 87 10 7b bc c0 89 8e bd 80 5d 0d bc
       0.006861026 -0.015323765 -0.069598675 -0.008628249
0001d0 43 24 ae bd ee f5 dd 3a 21 e0 8c 3d 7e 02 a8 3c
       -0.0850301 0.0016934255 0.06878687 0.020509
0001e0 7e bf 3f 3d 09 55 d7 3d a9 98 fb bc cb b0 8c bc
       0.04681348 0.10514266 -0.030712442 -0.017174145
0001f0 05 37 18 bd 56 0b 8a bd 22 a2 f3 3d 0e 8d 0c 3d
       -0.037161846 -0.067404434 0.11896159 0.034314208
000200 59 c0 15 3d cc 88 8b bc 0e 72 a8 3d bd 14 53 3d
       0.03656039 -0.017033003 0.08224879 0.05153345
000210 3d b2 28 3d b3 d0 49 3d c7 9c 03 3e 51 61 a0 bc
       0.041185606 0.049271297 0.12852775 -0.019577654
000220 4e 4b e4 3c 90 40 16 3d cd 59 ac 3d 84 06 ca bc
       0.02786794 0.036682665 0.08415566 -0.02466131
000230 cd 7c 0a be 98 d5 a5 3d b4 4e bb bd 24 d3 07 be
       -0.1352417 0.080973804 -0.09145871 -0.13264138
000240 74 e6 8a bc 03 5f a5 bd 8a 66 fc 3b a7 53 93 3c
       -0.016955592 -0.08074763 0.0077026533 0.017984224
000250 af d3 2f bd a8 f1 b9 3d 9b 52 a5 3d cd 33 00 3d
       -0.042926487 0.090792954 0.08072396 0.0312994
000260 2c b1 e3 3d ee 1f b8 bd 3d 1f 25 3c e3 28 0c bd
       0.11117777 -0.08990465 0.010078249 -0.03421868
000270 d7 ea bc bd e1 de 08 3d e1 9a b7 3c 74 8e 06 3d
       -0.0922448 0.03341568 0.02241272 0.032850698
000280 7c 45 df bd cb d7 fe bc 68 6b 3d 3d 66 e7 05 bd
       -0.10901925 -0.031108757 0.04624501 -0.032691382
000290 47 c3 ee bb 30 94 c1 3d c0 91 d3 3c 7a 6e 4a bd
       -0.0072864625 0.09452093 0.025826335 -0.049421765
0002a0 aa 24 0d 3d c3 91 5a bd 66 38 ee bd f4 ec 42 3c
       0.034458794 -0.053361665 -0.11631851 0.011897314
0002b0 cd 92 57 3d c5 2c 8a 3d 03 34 24 bd bb dc a7 3d
       0.052630235 0.0674682 -0.040088665 0.08196398
0002c0 6e 70 dc bd 59 a2 c7 3d db c2 99 b9 b4 78 29 be
       -0.10763632 0.09747762 -0.00029327613 -0.16549951
0002d0 f4 11 c4 3d 11 e4 a2 3c 9f 3a 10 3c d5 f0 c9 bc
       0.09573737 0.019884141 0.008803039 -0.02465097
0002e0 33 7d 1b 3d 8d bb 16 3d 46 f3 e7 bc c6 f5 82 3d
       0.037961196 0.036799956 -0.028314244 0.06394534
0002f0 92 7b 39 3d ff f6 f0 bc 84 d0 ed 3d 7f 32 ed bd
       0.04528386 -0.029414652 0.11612037 -0.11581897
000300 46 9e 9b bc c4 05 9b bb 9d ca f6 3b 24 71 ad 3c
       -0.01899637 -0.004730912 0.0075314776 0.021172114
000310 2c 4e cb 3b c1 67 89 3d 7d 34 00 be 2f 55 b6 3d
       0.006204387 0.067092426 -0.12520023 0.08902966
000320 0f 72 75 3e 1e 82 9b bd aa 3a 28 3e d2 2d ef 3d
       0.23969291 -0.07593177 0.16428629 0.116786614
000330 9b d9 8e bd ed 2c 05 3d 97 a7 95 3c 1e 39 28 3d
       -0.06975099 0.032513548 0.01826839 0.041070096
000340 4d f5 4c 3d 8e 97 7b bc 0b 17 76 3c dc c4 f5 3c
       0.050038625 -0.015355958 0.015020142 0.030001096
000350 46 7b f8 bd a3 06 b3 ba 37 73 21 3d 7b f8 8c ba
       -0.121328875 -0.0013658594 0.039416518 -0.0010755205
000360 47 ce 41 bd 3a 35 4c bd 5d d9 39 3c 40 7d e7 bd
       -0.047315862 -0.04985545 0.011343327 -0.113031864
000370 42 6d 09 bd fb 0b 99 bd 20 ac aa bd 0a e2 eb bd
       -0.033551462 -0.07472988 -0.083336115 -0.11517723
000380 23 fc 9f bd 61 80 e5 bd ee 56 da 3c 00 d2 7f bc
       -0.07811763 -0.11206127 0.02665278 -0.015614033
000390 b8 c6 40 3d 87 39 0e bd 73 47 ef bd 32 1f 61 bd
       0.047064513 -0.03472283 -0.1168355 -0.05496139
0003a0 8b 99 47 3c dc a7 16 be 85 f3 44 3d 22 f4 95 3d
       0.012182604 -0.14712471 0.0480838 0.07321955
0003b0 b3 bd 01 be 87 ab ce 3b c3 c6 16 3c d6 99 29 bd
       -0.12670021 0.0063070687 0.009202662 -0.041406475
0003c0 a5 69 3f 3d 7e fc 02 be 73 93 00 be 0f 9a 34 3e
       0.04673161 -0.1279163 -0.12556247 0.17636894
0003d0 e8 6c fd bc 5a 92 08 be d9 1a 6e bc 73 08 ad 3d
       -0.03093572 -0.13337079 -0.014532768 0.08448877
0003e0 cf 51 2f bd 7e 82 87 3d b7 02 e7 3d a7 26 e9 3d
       -0.042802628 0.06616686 0.11279815 0.113843255
0003f0 27 93 5e bd 41 ec 06 bd f5 ae 9e 3d 98 7e 65 bd
       -0.054339554 -0.032940153 0.07748214 -0.056028932

conv2.bias f4 [48]
000000 55 98 7b bc 0b da 88 3c 84 d0 2f 3d 4a 4b a7 ba
       -0.015356143 0.016705533 0.042923465 -0.0012763527
000010 8a 38 7f 3d 53 32 13 bd a3 f5 1e ba bb ce 69 bc
       0.06230978 -0.035936665 -0.00060638244 -0.01427048
000020 fa b6 52 bc 7f 2a 15 bd de 62 3f bc 31 7c 16 3d
       -0.012861008 -0.03641748 -0.011681287 0.036739532
000030 2b 18 ab 3d 60 92 2c 3d 9c 49 37 3d 9a ca 5d b9
       0.08354219 0.04213178 0.044747934 -0.00021151677
000040 bb 76 97 3c 6c fa de bc d1 d1 8e bd 40 ed 65 bc
       0.018489232 -0.02721902 -0.06973613 -0.014033616
000050 ce f0 85 3d a4 77 ff 3c 13 63 c9 bc a1 40 57 3d
       0.065400705 0.031184979 -0.024583375 0.05255187
000060 dc f7 92 3b 92 1a e7 bc ca 5d fc 3c ea a3 98 3d
       0.0044851135 -0.028210912 0.03080644 0.07453139
000070 10 0e 30 bc fc 76 fb 3c 42 47 5e bd 70 06 17 bc
       -0.01074554 0.030696385 -0.054267175 -0.009217843
000080 9f 9a 79 bc 93 fc f6 3c df 4a 89 3c 19 d9 ea 3c
       -0.015234618 0.030149734 0.016759334 0.028667973
000090 a4 bd 6b bd 4d 6c 8b 3c 5b 17 91 3d 8b d2 00 bc
       -0.057553902 0.017019415 0.07084533 -0.007862697
0000a0 9c aa 0b bd 0b d7 9c bd 32 ae b6 3d 05 85 d8 3c
       -0.034098253 -0.07658204 0.08919944 0.026430616
0000b0 b4 e5 c0 3c 20 32 62 bd 7f 80 94 bc cc b2 9c bd
       0.023547031 -0.055223584 -0.018127678 -0.0765129

conv3.weight f4 [64, 48, 2, 2]
000000 14 7d 8a 3d 76 6d 83 3c 46 88 0e 3e 62 ce 48 bd
       0.06762138 0.016043406 0.13919172 -0.049024947
000010 08 0c 23 bc c4 16 81 bd 3e fb 82 3d d8 e7 ef bd
       -0.009951599 -0.0630317 0.06395577 -0.117141426
000020 eb 75 22 be 7e 32 ed bd eb 47 48 bd 82 b5 c1 3d
       -0.15865295 -0.11581896 -0.04889671 0.09458448
000030 cd 47 30 3b 84 8f f6 3d 61 fb a2 bd e8 79 46 3d
       0.0026898265 0.12039092 -0.07958103 0.048456103
000040 b0 9b b4 ba ba 93 71 bd 8a bf 75 bc 4f ab c8 bd
       -0.0013779309 -0.058978774 -0.01499928 -0.097982995
000050 18 8f 02 be ac 03 1f be bb 18 5f bd c0 b4 57 bc
       -0.12749898 -0.15528744 -0.054466944 -0.013165653
000060 34 7a 1c bd 22 74 55 3d c2 8f 9c 39 16 ab 8e bd
       -0.03820248 0.052112706 0.00029861747 -0.06966226
000070 2d 26 d1 3a 7c 08 83 bd 1f 05 85 3b 8b c5 2e 3b
       0.0015956812 -0.06398103 0.0040594484 0.0026668038
000080 4c a4 3a 3c 9c e0 e5 3d 11 a3 9c 3d 43 75 40 3d
       0.0113917105 0.112244815 0.0764829 0.04698683
000090 e3 14 cc 3d b6 a3 2e bd 0e ed d7 3d ce 69 45 be
       0.09964921 -0.042636596 0.105432615 -0.19278643
0000a0 cf 21 07 3e ec 80 96 3b c5 e9 2c bd 29 e0 d8 bd
       0.1319649 0.0045930054 -0.042215127 -0.1058963
0000b0 fa d3 4c bd 31 91 86 bd cf 75 08 3a 59 15 0f bc
       -0.050006844 -0.06570662 0.0005205543 -0.008733117
0000c0 9d 06 91 bd 83 b6 11 3d c0 12 6f 3d 33 a3 ac 3d
       -0.070813395 0.035574447 0.05836749 0.08429565
0000d0 44 80 f4 3d c6 71 06 3e fa 77 1b 3d 4f b8 84 3d
       0.11938527 0.13129339 0.037956215 0.064804666
0000e0 92 93 28 3e 67 9a 08 3e ad 15 25 bd dc 17 94 3c
       0.16462544 0.1334015 -0.040303875 0.018077783
0000f0 b5 ef 19 3d 81 99 4a bc a8 c7 af bd 29 94 68 bd
       0.037582118 -0.0123657 -0.08583003 -0.05678192
000100 bf dd b0 3c 2b 61 5c 3d 22 ac e5 bc 83 34 86 bd
       0.021590112 0.053803604 -0.02803618 -0.065529846
000110 88 70 18 3d d0 90 d8 3d 15 96 31 bb 59 a2 12 be
       0.037216693 0.10574496 -0.0027097513 -0.14319743
000120 29 62 12 be 12 16 22 bd 0a 88 a8 bd 5f 88 b4 bd
       -0.14295258 -0.03957183 -0.082290724 -0.08815073
000130 e4 fc 41 3d 0e c0 6d 3d 9b a9 9c bd cc 8b d8 3b
       0.047360316 0.058044486 -0.07649537 0.006608462
000140 d7 b8 4e bd 63 bf 5f 3d 96 12 f5 3d e9 18 64 3b
       -0.050469246 0.05462588 0.119664356 0.0034804887
000150 4d 0e 0f bd 43 e7 b9 3d fc 69 02 bd 1b 45 8d bd
       -0.034925748 0.09077313 -0.031839356 -0.068979464
000160 4b 67 c2 bc c9 6f 65 bd e1 13 9e bd 71 f0 20 be
       -0.023730895 -0.05601481 -0.07718635 -0.15716721
000170 93 63 d5 3c 8c b9 d3 3d 3b d3 4b 3d 3e b3 30 3c
       0.026048457 0.10338125 0.049761992 0.010784922
000180 d8 2f 8c bd aa de 4b be a6 8a e4 3d 87 77 16 3e
       -0.06845063 -0.19909158 0.111592576 0.14694034
000190 ff e4 9f 3c 95 0e 1f 3e 3c 2f 38 bc c4 b3 93 bd
       0.019518374 0.15532906 -0.01124173 -0.07212022
0001a0 c8 41 4a 3c 66 88 ec bb 6b 2e 0a 3a 59 df e7 3d
       0.012344785 -0.0072184084 0.0005271199 0.11321897
0001b0 67 b1 b8 3d a5 ec 38 bd 1e a5 9f 3d c8 d8 60 bd
       0.09018212 -0.045147557 0.077951655 -0.05489424
0001c0 11 b8 14 3d 32 cb 3e bd fc 50 22 be fb 3f ac 3d
       0.036308352 -0.0465805 -0.15851206 0.08410641
0001d0 de 82 f3 bd 70 45 1c bd e5 09 0f be a4 66 50 be
       -0.11890195 -0.03815216 -0.13968618 -0.20351654
0001e0 d6 43 b9 bc 8c 87 f7 3d 81 e7 e5 3d 28 f5 97 3d
       -0.022615355 0.120864004 0.112257965 0.07419807
0001f0 02 75 ea bc 1b 35 3e bd 52 44 9c bd 81 f4 ed 3b
       -0.028620247 -0.046437364 -0.076302186 0.007261813
000200 95 7f da bd 47 d3 e7 bd 1a eb 59 3d c5 16 32 be
       -0.106688656 -0.11319595 0.053202726 -0.17391498
000210 7c 7b 3f 3c db dd e9 bd 1b e3 f5 3c 33 e7 1b be
       0.011687156 -0.11419269 0.030015519 -0.15224914
000220 f8 81 61 3d 3f 57 08 3d 31 90 13 be c6 b9 2f 3d
       0.05505559 0.03328633 -0.14410473 0.042901777
000230 63 e8 02 3d 96 5b a2 3c 43 58 44 3d 6c 16 06 3e
       0.031959902 0.019819062 0.047935735 0.13094491
000240 cd 9c a0 bd 67 53 29 be 5f a1 fe bd cb 4e f9 3c
       -0.078424074 -0.16535722 -0.12433123 0.03043308
000250 06 7e 5e 3d 57 c6 33 3e e4 87 11 3e f9 f9 27 be
       0.054319404 0.1755613 0.14211994 -0.16403951
000260 81 2a 8a bd 4d 1b 10 3e 23 41 05 be 0c 9e fd 3c
       -0.06746388 0.14072914 -0.13013129 0.030959152
000270 b3 92 a0 3c 01 ea 4a bd d8 80 76 bd 90 67 b8 bd
       0.019601202 -0.04953957 -0.06018147 -0.09004128
000280 ff ee d1 bd e4 64 bb bd c6 80 dd 3a 7b d2 e4 3d
       -0.10250663 -0.09150103 0.0016899339 0.111729585
000290 77 45 92 be 75 ff 06 3d 65 9b bb bd 38 db e1 bd
       -0.28568622 0.032958467 -0.091604985 -0.11028141
0002a0 2d 1d bd 3d 18 50 b5 bc 7a 4f 9e 3c 37 19 cf 3d
       0.092340805 -0.022132918 0.019325007 0.10112231
0002b0 4f 74 82 bd fd 16 9e 3d c3 cf 2e be 65 9c 36 bd
       -0.0636984 0.077192284 -0.17071442 -0.044582743
0002c0 fd 94 55 bc 45 8b 13 bd 6c 24 32 3e 13 84 69 bc
       -0.01303601 -0.03602149 0.17396706 -0.01425268
0002d0 de de a8 bd 1f bc d1 bc b1 4e f0 3b a0 a8 df 3c
       -0.082456335 -0.025602398 0.0073335995 0.027302086
0002e0 77 26 fd bd 8e 03 5d bd 6c 2f 1a 3e 8b 0d ae bd
       -0.12360852 -0.05395847 0.15057153 -0.08498677
0002f0 e5 bb 92 bc bc dc b9 bd db 79 81 3d 6f 40 f8 bd
       -0.01791186 -0.09075305 0.0632207 -0.12121665
000300 be a4 58 bd 5a c6 08 3e c3 77 75 bd 5c fd 20 be
       -0.052891485 0.13356915 -0.059928667 -0.15721649
000310 e4 79 52 be 1d 76 95 bd 6b 6f 0d 3c 62 34 7b 3d
       -0.2055431 -0.07297919 0.008632521 0.061329253
000320 b7 78 99 bc 3f 72 ac 3d ea d3 bc bd 25 51 48 3e
       -0.01873432 0.08420228 -0.09220107 0.19562204
000330 83 32 f0 bd 7f bc 69 3c 94 d2 fc 3d c6 fa 76 bd
       -0.11728384 0.014266132 0.12344852 -0.06029775
000340 c7 d5 8c bc 2b 03 b2 3c d0 54 a0 3d 4d c8 9e bd
       -0.01719178 0.021730026 0.07828677 -0.07753048
000350 db 25 93 3c bd ba 40 3c b3 65 f2 bd 1a f0 e3 bc
       0.017962387 0.011763272 -0.11835804 -0.02782445
000360 40 3b 94 3d 98 d7 4a bc 03 ff 99 3c 82 b2 98 3d
       0.072378635 -0.012380503 0.018798357 0.07455923
000370 06 56 d6 3d 29 f9 c0 bd 64 5d e8 3c a8 fe 28 bc
       0.104656264 -0.094225235 0.028364845 -0.010314621
000380 aa d1 79 bc 50 80 9d 3b a1 31 ec bc 46 42 e5 3d
       -0.015247742 0.004806556 -0.028832259 0.11194281
000390 23 e9 c8 bd 12 6e 74 bd 30 2b ef bd da ce a0 bd
       -0.09810092 -0.059675284 -0.11678159 -0.07851954
0003a0 64 0a d8 3d ce c9 ba bc 76 5c 48 3b 40 e8 ee 3d
       0.10548857 -0.022801306 0.003057269 0.11665392
0003b0 06 2c 0e 3d d4 1d 44 3c a6 c1 9d 3d ee 13 80 3d
       0.034709953 0.011970002 0.07702951 0.06253801
0003c0 b7 ea b8 bd f8 aa e7 bd 90 3d 6d 3e f7 06 9a 3b
       -0.09029143 -0.113119066 0.23168015 0.0047005373
0003d0 48 61 16 be a9 90 b8 3c a3 58 13 3e 3a 98 88 3c
       -0.14685547 0.022529917 0.14389281 0.01667415
0003e0 af ee ad 3d d3 b8 84 bd a8 78 e5 3c 9d 33 95 bd
       0.08492791 -0.06480565 0.028011635 -0.07285235
0003f0 7a 3d 0e bd 95 22 b0 bd 4b bf 96 bd f2 45 94 bd
       -0.034726597 -0.08600346 -0.07360705 -0.072399035

conv3.bias f4 [64]
000000 9e b5 c9 3c 8c b7 be 3c 12 c4 a1 3d 98 36 9f 3c
       0.024622735 0.023280881 0.078987256 0.019435212
000010 44 6c 22 bd 59 6a 7b 3d e6 0b e6 3d 87 d4 d6 3d
       -0.03965403 0.061380718 0.11232738 0.10489755
000020 ab a0 8c bd bd 05 9a 3d ed b0 ac bd 35 9e 2a bd
       -0.068665825 0.07520626 -0.084321834 -0.041654784
000030 c0 58 55 bd 46 b7 a0 3d 6c 4f 79 3d 13 94 a6 3b
       -0.05208659 0.07847457 0.06086676 0.00508357
000040 99 9e 49 bd 6f 04 4d bd 78 b5 82 bc 23 a8 ad 3d
       -0.049223516 -0.050053056 -0.015955672 0.08479335
000050 d8 92 9a 3c 61 f1 20 bd fa 1e bc 3c 22 4e 04 3b
       0.018868849 -0.039292697 0.02296399 0.0020188172
000060 93 e5 42 3d 76 cf db 3a 6c 19 6d 3d b0 c7 a8 bc
       0.04758222 0.0016770202 0.057885572 -0.02060303
000070 4a 59 9f bb 4d 2c 14 3d 1e 6b 9c bc d5 ab 9f 3a
       -0.004862939 0.03617506 -0.019094046 0.0012181947
000080 3c 47 72 3c e4 ca 70 3c 7a ef 1c 3d 9c 70 52 bc
       0.014787491 0.01469681 0.03831432 -0.012844231
000090 8c 5a 84 bd fa c7 8e 3d d4 f2 51 bd 3b 2e a4 3c
       -0.06462583 0.06971736 -0.05125697 0.020041576
0000a0 12 83 ad 3d 95 00 91 3d 5c 60 d6 3d ef 1c 4d 3d
       0.08472265 0.07080189 0.10467598 0.05007642
0000b0 89 5b 00 3e fc dc 85 3d 29 de 69 3d ab 0f ec bb
       0.12534918 0.0653629 0.057096634 -0.007204016
0000c0 ce e4 bf bd e5 f4 1a bc 17 15 bc bc 47 c0 3b 3d
       -0.09369813 -0.0094578015 -0.022959275 0.045837667
0000d0 23 bc ba 3d 63 b4 7f 3d e5 20 60 bc d1 15 57 bd
       0.091179155 0.06242789 -0.013679718 -0.05251104
0000e0 13 b9 99 bc b6 13 07 3d e1 6f 9e 3c b2 8b 6e bb
       -0.018765008 0.032977782 0.019340457 -0.0036399183
0000f0 0e 68 0a 3d f8 a9 87 bc 1e dd 8b 3d 75 e5 3b 3d
       0.03379064 -0.01656054 0.06829284 0.045873124

fc.weight f4 [128, 576]
000000 23 35 05 3c 24 6f 7f 3c a0 b0 b6 bc 99 7e b7 b9
       0.008130345 0.015590463 -0.022301018 -0.00034998803
000010 dc d8 07 bd 1a f6 09 bd c8 ec 75 bd 17 bc 8b 3b
       -0.033165798 -0.033681966 -0.060040265 0.0042643654
000020 95 e4 64 bc 19 62 de bc 71 0a ee bc d1 e9 0b bc
       -0.013970514 -0.027146386 -0.029057713 -0.008539633
000030 f1 d6 16 bd 0d 9a 91 3c fe e4 c6 3c ef 47 f1 3a
       -0.036826078 0.017773652 0.024279114 0.0018408279
000040 d1 0b a0 bc 24 0a 34 3c d2 14 aa bc d8 82 53 bc
       -0.019536885 0.010988746 -0.020761881 -0.012909614
000050 7c 45 43 bd f2 cd 4f bc d5 5f 67 3c 25 5e 9d bc
       -0.047673687 -0.0126833785 0.014121969 -0.01920993
000060 5d 7d 17 3d 23 84 59 3b fb 18 ae bb 91 09 a7 3c
       0.03698479 0.0033190332 -0.0053130365 0.020390304
000070 bd e1 5b bc 7f 99 c0 3c 14 ee e0 3c 58 91 39 3c
       -0.013420519 0.023510693 0.027457274 0.011326157
000080 9a 25 5a 3b 1b 12 ab 3d 1c 9a 60 3c a0 af 89 bc
       0.0033286572 0.08353063 0.013708618 -0.016807377
000090 f3 73 26 3d c7 4b 99 3a 2d 35 84 3b 70 56 bd 3c
       0.04063792 0.0011695557 0.0040346594 0.023112506
0000a0 23 87 cd 3b 0b 1d e7 bc ab 38 ec 3c f0 75 3b 3c
       0.006272213 -0.028212091 0.028835615 0.011441693
0000b0 ed 88 c6 bb 33 85 6e 3c c9 5c b3 3a f8 d2 8b bc
       -0.0060588033 0.014558124 0.0013684268 -0.017068371
0000c0 d0 93 a0 3c ca a6 82 3c b9 65 33 bd bc 61 d6 3c
       0.019601732 0.015948672 -0.043798182 0.02616965
0000d0 31 80 9d bc 29 c8 dd bc 36 fd 74 bc 0b 7d 67 bc
       -0.019226165 -0.027072983 -0.014952948 -0.014128934
0000e0 c8 65 7c bc 24 c0 02 bd 7e b5 1d 3c 3f 6f 16 bc
       -0.015405126 -0.03192152 0.009625791 -0.009181797
0000f0 28 7f 23 bb 06 de 24 bc 6e 0a eb 3c 78 d6 c8 3c
       -0.0024947617 -0.0100627 0.028691497 0.02451633
000100 5b 56 94 bb e3 97 91 3c c5 1e ab bc 7f eb 5a bd
       -0.004526896 0.01777262 -0.020888695 -0.053447243
000110 fe 71 8e 3c 23 70 60 bc 3e 0f f2 bb 8e 0b 68 bc
       0.01738834 -0.0136986105 -0.007387071 -0.014162911
000120 5a 6f 46 bb 03 0c 7b bb 12 19 46 bd 97 0c aa 3c
       -0.0030278773 -0.003830672 -0.048363753 0.020757956
000130 63 71 72 3c 75 85 ae bc 6a 99 c6 3b ed ac bc 3c
       0.014797541 -0.021303872 0.006060769 0.023031676
000140 47 da 53 3c 32 27 a7 bc 03 b4 26 3c 31 2b 26 bd
       0.012930459 -0.020404432 0.010174754 -0.040568534
000150 0c e4 c7 3c a9 f9 52 bc 6c bc a0 3c 17 d6 a1 bc
       0.024400733 -0.012876906 0.019621097 -0.019755406
000160 09 e4 8f bc 2e 7a 84 bc 54 b2 56 bb c7 33 c2 3b
       -0.01756479 -0.016171541 -0.00327601 0.0059265825
000170 1a 2f 6a 3b de aa 16 3c 35 08 a5 3c 0a cb 08 bc
       0.003573364 0.009196011 0.020145515 -0.00834919
000180 69 42 22 3d cd 07 d8 3c f6 67 26 3c 7b e8 05 3d
       0.039614115 0.026370907 0.010156622 0.032692414
000190 40 44 b5 3c 87 be 47 bc 9a e0 49 3c c0 25 c1 bc
       0.02212727 -0.012191421 0.012321616 -0.02357757
0001a0 3f bc 40 bc a5 31 e4 bb af 05 29 bd 19 53 b0 bd
       -0.011763631 -0.006963926 -0.041265186 -0.086095996
0001b0 7b 39 96 bb 7b c2 98 bc 5a 1a 34 3a 13 28 88 bc
       -0.004584489 -0.018647423 0.0006870382 -0.016620671
0001c0 96 1a 8b ba 57 0f 9f 3a ed 8d 60 bd b8 cb 83 bd
       -0.0010612782 0.0012135309 -0.05482285 -0.06435341
0001d0 67 89 e7 bc 03 72 70 bb c4 62 60 bc 15 b0 63 3b
       -0.02826376 -0.003668905 -0.013695423 0.0034742404
0001e0 95 7e b3 3c 1f 33 97 3c a7 63 e0 3c 20 38 45 3c
       0.021910945 0.018456994 0.027391268 0.012037307
0001f0 34 82 a3 3c 6c fd 34 3d 7a 39 ef 3c 3e 2c b2 bb
       0.019959547 0.044186994 0.029202212 -0.005437403
000200 90 8e 02 bc 95 3c cf bb ed 8a 63 bb eb dc f7 bc
       -0.00796856 -0.0063243606 -0.0034720257 -0.03025671
000210 d9 f7 ac 3c 55 59 49 bb cd 19 43 bc f6 7a 2d bd
       0.021114277 -0.0030723412 -0.011908007 -0.042353593
000220 d3 e0 bb bc 73 73 3d 3c 64 00 00 3c fa 1d c0 bc
       -0.022934353 0.01156317 0.007812593 -0.023451794
000230 97 df 18 bc 05 6f 54 3d ff 4f 00 3d e5 9d 52 3d
       -0.009330652 0.05186369 0.03132629 0.05142011
000240 66 20 45 3c 96 32 cb 3b 5b 2c 03 bd 72 aa a3 bc
       0.01203165 0.0062010987 -0.032024723 -0.019978736
000250 43 2a 80 bc 50 04 f6 bc ba de 9a 3b f3 ea 67 3d
       -0.015645152 -0.030031353 0.004726258 0.05662055
000260 63 69 63 3b 3c b9 e3 3a e9 46 81 3c 48 aa 14 3d
       0.0034700267 0.001737393 0.015780883 0.036295205
000270 30 bd 02 3c dc 22 80 3c d5 56 89 3c e4 87 9d 3c
       0.007979676 0.015641622 0.016765038 0.019229837
000280 33 c0 93 3c 72 a2 3b 3d bf 00 0f bd 84 36 a2 3c
       0.018035984 0.045809217 -0.03491282 0.019801386
000290 f5 a8 68 bb e2 48 60 3c 7f 03 0d 3c 05 cf d5 bc
       -0.0035501097 0.013689252 0.008606791 -0.026099691
0002a0 96 cb 1a bd 53 ab a4 3b 7d 30 a5 bd 99 eb 4d bd
       -0.03779181 0.0050253063 -0.08065889 -0.05027351
0002b0 5f 6b 38 bc 00 e2 6f bd 4a 91 fa 3a 13 83 58 bc
       -0.011256068 -0.05856514 0.0019116786 -0.013214844
0002c0 ab 54 a4 3c 08 84 bc bc 86 f5 70 3b 01 c0 98 3d
       0.020059904 -0.023012176 0.0036767437 0.07458497
0002d0 ca 2b 93 3c b6 c3 fb 3b 66 ba 5b 3d 3c f9 d2 bc
       0.017965216 0.0076832427 0.05364456 -0.02575361
0002e0 af f6 b9 bc 68 f6 cf 3c 65 66 a4 3c dc d1 cd bb
       -0.022700636 0.02538605 0.020068357 -0.0062811207
0002f0 79 0a 7e 3d 17 5d 9b bc 04 47 91 bc 31 11 c7 3c
       0.062021706 -0.018965287 -0.017734058 0.02430019
000300 8b dc 83 bb 3c f2 23 bd bd 77 ef 3b f6 7b 43 3d
       -0.0040240935 -0.040025935 0.007307975 0.04772564
000310 e6 3f e4 bb 57 6f b9 3c 4f f3 46 bd 1d e8 64 bc
       -0.006965625 0.022636099 -0.04857188 -0.013971356
000320 5c 96 53 3d 6e 02 0a bd ba 18 a1 3b 5b 3d 08 3c
       0.051657066 -0.033693723 0.0049162777 0.0083154095
000330 25 4a 97 3c c4 86 c7 3b 9f 41 9c bb 06 72 6f bc
       0.018467972 0.0060890634 -0.004768565 -0.014614588
000340 be e0 7e bc 1f 5b 7d 3d a1 b4 d3 bc 40 6e 02 bc
       -0.015556512 0.061854478 -0.025842967 -0.007960856
000350 25 cf 03 3d fd e8 11 bd 96 23 8e bc 6f 13 20 3d
       0.03217997 -0.035622586 -0.017350953 0.039081033
000360 78 a6 8e 3b 62 07 e7 bc 03 ac 02 bd f7 f6 07 3d
       0.0043533407 -0.028201763 -0.031902324 0.03319451
000370 56 73 b5 3c 97 84 89 3c 8b 84 f6 3c 27 11 5f 3d
       0.022149723 0.016786857 0.030092498 0.054459717
000380 28 d0 b3 3c 42 05 53 3d 7e b5 d9 3c 9e ee c6 3c
       0.021949843 0.051518686 0.0265758 0.024283703
000390 25 eb fa 3c 6f 64 23 3d 27 82 a2 bc 95 2e 16 3d
       0.030629704 0.039890703 -0.019837452 0.036665518
0003a0 60 ec 88 39 43 77 04 bd 44 07 0f 3c 85 87 45 bc
       0.00026116055 -0.0323403 0.00872976 -0.012056236
0003b0 c9 4c 26 3d cc 8c 98 3c 92 61 a2 3c 68 c4 6a bb
       0.04060057 0.018621825 0.019821916 -0.0035822634
0003c0 0e 8a 35 3c 20 c6 70 3d 2f 9f f1 3c bd 59 f7 bc
       0.011080278 0.058782697 0.02949485 -0.030194158
0003d0 9d 25 05 bd 1c 80 40 bd a4 12 49 bc 91 27 ba bc
       -0.032506574 -0.046997175 -0.012272511 -0.022723945
0003e0 69 27 9e bc d3 95 a6 3b 72 f2 61 3c ef 07 59 bb
       -0.019305902 0.0050837784 0.013790714 -0.00331163
0003f0 03 ed 72 bc 7b bb 29 bc 6d 29 2f bc 45 34 97 bc
       -0.014827016 -0.01035964 -0.010691029 -0.018457541

fc.bias f4 [128]
000000 99 c0 73 bd 3d ea d1 bc 07 d9 d8 bc 28 30 1a 3d
       -0.059509847 -0.025624389 -0.026470674 0.03764358
000010 9a a9 5c bd 26 ec 54 3c f0 d4 8d 3b b6 9d 77 3d
       -0.053872682 0.012995755 0.0043283626 0.06045314
000020 5a 29 1e 3c 30 97 a5 3d 64 7e ed 3b d3 4f 92 3d
       0.009653414 0.08085477 0.007247733 0.071441315
000030 2c fb 41 bd 3f 60 1b bc d2 22 84 3d 32 86 75 3d
       -0.047358677 -0.009483396 0.06451954 0.05994243
000040 de b7 54 bd 33 d4 1c bd 95 2c f1 bc 6a b6 74 3d
       -0.051933162 -0.038288306 -0.029440204 0.059744276
000050 a7 ef 95 3d f9 63 90 bc 09 92 9c 3d 3f 5c 22 3c
       0.07321101 -0.017625796 0.076450415 0.0099096885
000060 2c 36 fd bc f8 93 81 3c a9 96 2c bd 75 da 42 3d
       -0.03090962 0.015817627 -0.04213587 0.047571618
000070 29 ad 79 bb 05 65 a9 3c 73 4d 53 3d a3 20 a7 3d
       -0.0038097596 0.020678053 0.051587533 0.08160522
000080 4e 3e 71 bd 60 f8 83 3b f5 a2 c3 bc 6c ba a9 bd
       -0.05889731 0.0040274113 -0.023881415 -0.0828751
000090 c9 f4 02 3d 45 b5 9c 3d 32 b2 65 3a bd 09 76 bb
       0.031971727 0.07651762 0.000876221 -0.0037542426
0000a0 99 28 11 3c 19 d3 50 bd 86 4b 30 3c 8c e5 d3 bc
       0.008859777 -0.05098257 0.010760194 -0.025866292
0000b0 9c 58 1e 3d f5 fe 84 bc 29 f7 a8 3d 8a 0c 8f 3d
       0.038658723 -0.016234854 0.08250267 0.069848135
0000c0 11 6e 8f bc cf b1 08 3d 81 39 cd 3c 94 14 6f bd
       -0.017508538 0.033372696 0.025051834 -0.058369234
0000d0 b0 a4 1c 3c 68 2e 6b 3d de f9 7e bd 56 ba cf bb
       0.009560749 0.057417303 -0.06225001 -0.0063393516
0000e0 22 50 00 bd d8 71 d5 3d 59 53 ed bc ae d5 25 3d
       -0.03132642 0.104221046 -0.028970407 0.040486984
0000f0 37 ae 58 bd 72 97 18 3d 74 de cc 3d 12 25 0d bd
       -0.05290052 0.037253805 0.10003367 -0.03445918
000100 87 b5 d8 3c 59 61 13 3d 79 44 01 bd a2 6c 62 3d
       0.026453746 0.03598151 -0.03155944 0.05527938
000110 b7 8e b5 bd 8e 79 5f 3d f3 2c 4f 3c 73 97 1b 3d
       -0.08865111 0.054559283 0.012644994 0.03798623
000120 9e a7 8e 3d 4f 28 5d bd bd 6e 58 3d e3 10 8b 3d
       0.06965564 -0.05399352 0.052839983 0.0679033
000130 7c 95 b3 3d d7 a2 a2 3d f5 37 5d 3d fc 6d 6b b8
       0.08768746 0.079412155 0.054008443 -5.6130797e-05
000140 ee ef 1b bd fa 02 bf 3d 38 47 0c 3d 44 55 9c 3c
       -0.03807061 0.093267396 0.034247607 0.019083627
000150 36 ca 6e bd 9c c6 4a bd 50 60 8d 3a bc be 7c bd
       -0.058298312 -0.049505815 0.001078615 -0.061705336
000160 25 f3 75 bd 09 3a 4a bd fa f9 8b bc cf 40 1d 3c
       -0.060046334 -0.049371753 -0.017086972 0.009597971
000170 ee 46 81 3c b2 7f 03 bd 15 db d0 3d 71 ad a9 bc
       0.015780892 -0.0321042 0.101980366 -0.020712586
000180 6e ab 88 3b bf ef 55 bc d4 83 59 3c 1e d4 92 bd
       0.0041708266 -0.013057648 0.013276059 -0.071693644
000190 cf 75 33 3d 69 98 45 3d bd cd 00 3c 38 70 c3 3c
       0.043813523 0.048241053 0.007861552 0.023857221
0001a0 be b5 ee 3c 88 1f 56 bd 09 03 39 bc a3 21 38 bd
       0.029139396 -0.052276164 -0.011292228 -0.044953953
0001b0 27 76 b4 bd 1d a6 71 3c 5a 43 c7 bc 73 fc 5c 3d
       -0.08811598 0.014749077 -0.024324108 0.05395169
0001c0 47 36 d2 bc cf 37 9b 3c df c3 ca 3b 8d 66 c3 bc
       -0.025660647 0.01894751 0.0061879004 -0.023852611
0001d0 6d 39 24 39 8c a2 5a 3d 01 79 bd 3d 15 dd cc 3c
       0.00015661652 0.053377673 0.09251595 0.025007764
0001e0 26 05 c0 3d 65 4a 0f 3c 75 5b 12 3d 56 41 9d bd
       0.09375982 0.008745764 0.03573175 -0.076784775
0001f0 6c 35 b2 3d 29 48 a2 ba 53 c2 91 3d a1 48 18 3c
       0.08701596 -0.0012381125 0.071171425 0.00929466

class_fc.weight f4 [2, 128]
000000 a5 51 33 3e 65 28 9d bd 03 b5 53 3d 6f e0 dc 3d
       0.17511614 -0.0767372 0.051686298 0.10784995
000010 ed 47 9e be ce ea 40 3e 93 2b 99 be 67 22 e4 3d
       -0.3091425 0.18839571 -0.29916057 0.11139374
000020 65 19 41 bd df f9 68 3e f9 03 c0 3e f1 30 31 be
       -0.04714336 0.22751568 0.3750303 -0.17303826
000030 e9 7b d6 be 95 bf d7 3e f9 15 5c bd a7 31 25 3d
       -0.4189141 0.42138353 -0.053731892 0.040330555
000040 1a f9 7b bd 7d 9b 5a be 60 a9 b0 bc 07 18 82 bc
       -0.06151686 -0.21348377 -0.02156514 -0.015880598
000050 94 f0 20 3e 8a 06 9c 3e d5 a3 50 3e 04 69 18 3e
       0.15716773 0.3047374 0.20374997 0.1488381
000060 b2 88 50 3e b3 7b b6 be 9e bd 92 bb 47 57 9a 3e
       0.20364645 -0.3564125 -0.0044781705 0.30144712
000070 e6 1b aa 3e 50 7e a4 3e b2 cc 38 be f1 c1 37 be
       0.3322441 0.3212762 -0.18046835 -0.17945077
000080 38 26 99 be 3f cb 2c 3e 74 90 31 3d b3 b2 85 bd
       -0.2991197 0.16874407 0.04335065 -0.06528225
000090 93 52 bb 3d 6b 5c 23 be 90 6f 8a be 2b 19 3e be
       0.09146609 -0.15953223 -0.2703824 -0.18564288
0000a0 1b de 8f be 81 a6 ee 3d d8 a8 72 be b4 89 e1 3d
       -0.2809914 0.11652852 -0.23697221 0.11012593
0000b0 3f 4e 08 be 9c a1 67 be 68 df 6a bd 37 d0 ae bc
       -0.13311099 -0.22620243 -0.057341963 -0.021339519
0000c0 22 c7 f7 bd 33 e7 c8 be 07 68 a7 bd b0 5d ce bd
       -0.120985284 -0.3923889 -0.081741385 -0.10076463
0000d0 36 df 95 be 25 94 45 bd 6a 87 00 be d7 b0 15 bf
       -0.2927186 -0.048236985 -0.12551656 -0.5847296
0000e0 06 59 35 be 4d d6 f4 3c f8 e6 cf bc e1 8e 56 be
       -0.17709741 0.029887343 -0.02537869 -0.20952941
0000f0 24 18 4b be 4f f0 45 ba 9d cb 6b bd fd dd d2 3e
       -0.19833428 -0.00075507624 -0.057567228 0.4118499
000100 8d 9a a0 3a 55 76 88 bd 2e f3 0e 3e 36 9f 3e 3e
       0.0012253091 -0.06663195 0.13959953 0.18615422
000110 76 28 5f 3d 6c 68 d1 be fe 8f e0 bd 78 4f b2 be
       0.054481946 -0.4089998 -0.10964964 -0.34826255
000120 86 a9 25 bc b0 d2 f6 3d 54 59 72 3e 8c 1b 97 3d
       -0.010111218 0.12051904 0.23666888 0.07378301
000130 f3 a7 d2 3d 4d 93 2c 3e ce 13 87 3e b4 e0 36 be
       0.1028594 0.16853066 0.26382297 -0.17859155
000140 a1 7a 31 3d 1f 48 11 bd 65 03 9e 3e 58 9b 91 3e
       0.04332984 -0.03546917 0.30861965 0.2843883
000150 63 9d ad be eb 59 6f be 90 9b cf 3d cc af 55 bc
       -0.3390914 -0.23374145 0.10137093 -0.0130424015
000160 75 64 57 be b8 93 ea bd 97 99 27 be c6 97 b9 3e
       -0.21034415 -0.11453956 -0.16367184 0.36248606
000170 ed 7d 7d be 38 c2 91 be f6 90 a5 bd 86 2f 16 3e
       -0.24755068 -0.2846849 -0.0808429 0.14666566
000180 46 99 e8 3d 4d 67 a8 3e 3e df 80 be e6 6d 64 3e
       0.113573596 0.32891312 -0.2517032 0.22307548
000190 81 83 b7 be 4c ed ff bd cd 58 3e be 44 fc 15 3e
       -0.35842517 -0.12496433 -0.18588562 0.14647013
0001a0 62 66 45 3e 4b 85 b8 be 4d f5 16 be 0f 0d 58 3d
       0.19277337 -0.36039194 -0.14742012 0.05274683
0001b0 38 a3 8f 3c 0f 13 b4 3e 46 ab 32 be 31 d2 08 bd
       0.017533883 0.3517079 -0.17448148 -0.03340358
0001c0 92 65 b2 be c3 23 5c 3e f7 dd 6b 3e ff ef 6c 3e
       -0.34843117 0.21498017 0.23033892 0.23138426
0001d0 43 8a bc bd 72 e6 7d 3e b4 1b 8a bd 4b 68 77 3e
       -0.09206059 0.24794939 -0.06743565 0.24160878
0001e0 8c 2f b9 3d 6c 63 e1 be 97 22 0d 3d e2 74 b7 3b
       0.09042272 -0.44021165 0.034456816 0.0055986503
0001f0 2b ec 53 3e d9 a0 fe 3d e2 9a b9 3d 79 e8 93 3d
       0.2069556 0.12433023 0.09062745 0.07222075
000200 a6 81 03 be 7e be ce 3d 21 ce 99 bd 66 0b fd bd
       -0.12842426 0.10094927 -0.07510019 -0.1235569
000210 54 35 ab 3e 6b 7c 72 be 7b d2 61 3e e9 d3 2a be
       0.33439124 -0.23680274 0.22052948 -0.166824
000220 f5 4e 8b bc 8f ab 65 be 6e 1a ce be a1 40 4a 3e
       -0.017005423 -0.22428726 -0.4025454 0.19751216
000230 b8 8b c4 3e b5 8f ee be d1 a3 02 3d 6e 92 0b be
       0.38387847 -0.46594015 0.03189451 -0.13630077
000240 b3 8b 00 3e e0 fe 30 3e ed 76 60 bd 28 8a 23 3d
       0.12553291 0.17284727 -0.054800916 0.039926678
000250 45 24 06 be 91 ee 83 be da 25 13 be 03 da 25 bd
       -0.13099773 -0.2576795 -0.14369908 -0.040491115
000260 e9 9e 92 be b3 33 d4 3e 0f 83 d9 bd 56 fd b2 be
       -0.28636864 0.41445693 -0.106207006 -0.34958905
000270 e7 55 6e be 35 41 a9 be 97 fa e0 3d 0a 39 25 3e
       -0.23274957 -0.33057562 0.10985296 0.1613504
000280 91 dd 9c 3e 95 e2 27 be cf 05 72 bd f1 95 05 3e
       0.30637792 -0.16395028 -0.05908757 0.1304548
000290 51 f3 a5 bd e3 78 03 3e 2e 40 66 3e a6 3a 0f 3e
       -0.081030495 0.12839083 0.2248542 0.13987216
0002a0 c3 95 99 3e 76 e2 da bd 44 20 9a 3e ab cc 81 bd
       0.29997072 -0.10687725 0.30102742 -0.063378654
0002b0 4d 1e 82 3d 28 77 72 3e 21 8a ee 3c d3 80 8d bd
       0.06353436 0.23678267 0.0291186 -0.06909337
0002c0 ff 17 1a 3e 43 00 b0 3e c5 d7 db 3d b9 0a 99 3d
       0.15048216 0.343752 0.10734514 0.07472748
0002d0 9a 18 8b 3e 5f dd a0 3c 07 0c 80 3d 5a 66 f4 3e
       0.27167207 0.019636808 0.06252294 0.47734338
0002e0 52 be 5e 3e aa 70 d5 bd 57 ed ed 3d 93 9b 4b 3e
       0.21752289 -0.104218796 0.116175346 0.19883566
0002f0 c3 9f 26 3e a7 65 d7 3c 9f 30 a0 3c 60 bd bc be
       0.16271882 0.026293589 0.019554434 -0.36863232
000300 16 11 df bd 8a 20 de 3d 61 05 1a be b0 c3 44 be
       -0.10891931 0.1084605 -0.15041114 -0.19215274
000310 01 c9 ec bd 72 a6 c8 3e ff 43 4d 3d 54 54 93 3e
       -0.11561776 0.39189488 0.050113674 0.28775275
000320 6e 58 28 bd 88 1e c3 bd 17 7c 00 be da b3 f4 bc
       -0.041099958 -0.09527308 -0.12547337 -0.029870916
000330 05 45 41 bd 6e 55 29 be 51 10 8d be be bf 50 3e
       -0.047184963 -0.16536495 -0.2755151 0.20385644
000340 3d 7d 93 bc 3c 00 e2 bc b4 a4 ba be 5c fe 81 be
       -0.018004054 -0.027588002 -0.36453784 -0.25389373
000350 09 06 8e 3e 31 5a 65 3e 4f d0 ea bd e7 a0 85 3d
       0.2773898 0.22397687 -0.11465513 0.0652483
000360 ef c3 2e 3e 11 a1 15 3e 86 80 21 3e 78 00 a4 be
       0.1706693 0.14612223 0.15771684 -0.32031608
000370 39 45 2b 3e 85 37 8b 3e 3c f2 18 3e 2d a5 bf bd
       0.16725625 0.27190796 0.14936155 -0.09357677
000380 af 15 1c be 13 8a ae be fc 74 9d 3e 30 a9 56 be
       -0.15242647 -0.34089717 0.30753314 -0.20962977
000390 34 38 ac 3e b5 fc a0 3d 65 80 b5 3d bb 87 f6 bd
       0.3363663 0.078607 0.0886238 -0.12037607
0003a0 8d dd e9 bd 7f c4 a0 3e 71 85 50 3e 31 14 65 3d
       -0.114192106 0.31399915 0.20363404 0.05592746
0003b0 c8 c7 77 bc b1 a0 ca be ad 1b f4 3d 0c 35 06 3e
       -0.015123315 -0.39575723 0.11919341 0.13106173
0003c0 a9 d8 a2 3e 70 62 e4 bd c0 ad 04 be a7 32 68 be
       0.31805924 -0.11151588 -0.12956905 -0.22675572
0003d0 e2 82 94 bc 86 ad a9 be 62 3c bd bb b2 fb 86 be
       -0.018128816 -0.331402 -0.0057750205 -0.26363903
0003e0 31 68 fa bc 87 2a b2 3e 49 e0 66 3d 84 6f f5 bc
       -0.03056726 0.3479807 0.05636624 -0.029960401
0003f0 a2 eb 35 be 1a 69 13 be 9b 5e f6 bd 1e a3 9e bd
       -0.17765668 -0.14395562 -0.12029763 -0.07745956

class_fc.bias f4 [2]
000000 f9 5a 27 bd 8e 5a 15 3b
       -0.040858243 0.002278957

bbox_fc.weight f4 [4, 128]
000000 13 f4 55 ba 73 f9 dc 3c 28 64 f5 bb 20 b5 6e 3d
       -0.0008161675 0.026974415 -0.007488746 0.058278203
000010 bd dd 94 3d 6c dc 0c 3d 88 70 3c bb 68 4c dd 3d
       0.07268856 0.0343899 -0.0028753597 0.10805589
000020 70 35 8a 3c 69 da 26 bd 71 96 b8 bd 24 cc 90 3d
       0.016871184 -0.040735636 -0.090130694 0.07070187
000030 f6 72 53 3d 14 6e 3d 3d 9b f9 63 bc cd d5 72 bd
       0.051623307 0.046247557 -0.013914491 -0.059285928
000040 11 b0 8a 3c e1 bf 09 3c d5 34 38 bd 85 e6 9f 3c
       0.016929658 0.008407564 -0.04497226 0.0195191
000050 77 97 03 bc a4 51 8c bc 22 89 69 bd c8 b2 b4 bd
       -0.0080317175 -0.017128773 -0.057015546 -0.08823162
000060 32 e2 35 bb 64 0c 3d bd 54 07 79 bd 1c dc 70 bd
       -0.002775323 -0.046154395 -0.060798004 -0.058803663
000070 ec 80 55 3c 2a 95 f3 ba 32 26 d5 3c 2d b0 61 bd
       0.013031226 -0.0018583883 0.02601919 -0.055099655
000080 2e 42 b1 3d 06 c8 94 bc c3 a1 28 bd bc 7a 95 3d
       0.08655201 -0.018161785 -0.041169893 0.072988
000090 68 52 80 3d 35 1f 02 3b 4d 0d 22 bd f5 7c fd 3a
       0.06265718 0.0019855027 -0.039563466 0.0019339608
0000a0 e9 95 2a 3d 8f a7 db 3c c6 a3 80 bd ca ed 10 bd
       0.04164687 0.026813297 -0.06281237 -0.035383023
0000b0 9c f9 74 3d 44 db 98 bc 29 aa 11 3c 4d 4d da 3c
       0.05980836 -0.018659241 0.008890667 0.026648188
0000c0 fc b4 87 bd 6c c3 4d bd b7 c5 6f 3d 94 d8 98 bc
       -0.06626317 -0.050235197 0.058538165 -0.01865796
0000d0 e9 db b1 3b 11 c9 42 bd 07 60 15 bd f8 e7 84 bb
       0.0054278267 -0.047555033 -0.036468532 -0.004055973
0000e0 d9 68 0a 3d 35 75 08 bc 9e 8a 23 3d b4 3a bc 3d
       0.033791397 -0.008328726 0.039927118 0.09190884
0000f0 13 c7 07 3d d0 74 da bc 2c 54 15 bc 26 52 eb 3c
       0.033148836 -0.026667029 -0.009114306 0.028725695
000100 70 14 44 bd 0d fb 5c 3d ec 5d 07 3d cd e0 47 bd
       -0.047871053 0.05395036 0.033048555 -0.04879837
000110 11 2a 0e 3d 8b 76 27 bd 66 5d 89 3d 45 a5 44 3c
       0.034708086 -0.040884536 0.067072675 0.012002294
000120 50 b1 a5 3c 0e a8 22 3d c5 b4 7c bd eb 25 5c bd
       0.02022615 0.03971105 -0.061695833 -0.0537471
000130 e0 6e df bc 08 32 5e bd f3 b0 1e 3d 92 d5 b1 bc
       -0.027274549 -0.054246932 0.03874297 -0.021708284
000140 9a 4c 28 bd 84 fb df bc 02 0d 28 3d a2 a1 dc bc
       -0.041088678 -0.027341612 0.04102803 -0.026932541
000150 74 d3 71 3b 81 6c 06 3d 6b 3c 49 3c e4 53 e3 bc
       0.0036899718 0.03281832 0.012282471 -0.027749963
000160 62 49 c8 3c 97 d1 31 bd d7 c8 53 bd a4 8b 9d bd
       0.024449054 -0.04341277 -0.051705208 -0.0769265
000170 2a a3 63 3d 08 67 10 3d 45 6e 43 3d 7b 0e 68 bd
       0.055575527 0.03525451 0.047712583 -0.056654435
000180 a8 e6 be bc 93 51 c6 3d 89 81 1f bd d5 71 67 3d
       -0.023303345 0.09683528 -0.038941894 0.056505043
000190 74 29 8a bd 79 3d 31 bd 2f df c8 bb a2 35 c6 3c
       -0.06746188 -0.043271516 -0.006130121 0.024195496
0001a0 4f 4b 8d bc 8d 60 89 3d 4f ac 52 bd e6 10 43 bc
       -0.017247824 0.06707869 -0.051433858 -0.011905884
0001b0 0e a2 1c bd 61 a7 26 bd 14 0c 3d bd 4d f2 88 bd
       -0.038240485 -0.04068697 -0.046154097 -0.0668684
0001c0 54 bc 26 3d 8e e3 61 3d bb d8 b5 3c 9e 86 45 3d
       0.040706947 0.055148654 0.022198072 0.048224084
0001d0 e7 3d 93 bd 77 5c 1d 3d a9 5b df ba 20 4a c0 bc
       -0.07189541 0.03841826 -0.0017040867 -0.023472846
0001e0 ad 29 86 3d 3a f8 8e bd f6 1f 0c 3d c4 8a 6c 3d
       0.06550918 -0.06980939 0.034210168 0.057749525
0001f0 5c 2b d2 3c 47 60 34 3d 0b 4a 5f 3d ab 04 17 bc
       0.025655441 0.04403713 0.054513972 -0.0092174215
000200 66 39 9f bc 31 78 3d bd a6 1e 92 3d a5 58 46 bd
       -0.01943655 -0.0462572 0.07134752 -0.04842438
000210 95 93 12 bd 55 8c 74 3c 7e cf 34 bd 8d bb e7 bc
       -0.035785276 0.014926036 -0.044143192 -0.028287673
000220 11 91 37 3d 40 11 00 bd f4 4d 47 3b 6b f6 74 bd
       0.04481608 -0.03126645 0.0030411454 -0.059805315
000230 5f ee 2a 3d 0f a7 47 bd 1e 45 9e bd 8a 46 d0 bc
       0.041731235 -0.048743304 -0.07728027 -0.02542426
000240 65 80 26 3d 30 c3 6c bd c6 3e 2f 3d 23 1d 26 3c
       0.04064979 -0.057803333 0.042784475 0.010138783
000250 88 9e f3 bc 26 51 d4 3c af c7 69 bd ec fa c5 bc
       -0.02973868 0.0259176 -0.0570752 -0.0241675
000260 4d c4 5c 3d 96 18 7b 3b af 33 c1 bb 75 df 10 bc
       0.053898145 0.0038314215 -0.0058960537 -0.008842339
000270 ac 81 f9 3c b8 fc 6d 3d e2 60 92 bc c8 a7 2e 3c
       0.03045734 0.05810234 -0.017868463 0.010660119
000280 2d c0 e0 bc 98 7f 32 3d d1 37 96 bd 07 59 ab ba
       -0.027435387 0.043578714 -0.07334865 -0.0013072797
000290 ea d6 e1 bc 42 13 0f bd dc a2 30 bb 07 83 e0 3b
       -0.0275683 -0.034930475 -0.002695254 0.006851557
0002a0 c0 e7 1c 3c 54 39 a2 3d 11 ef c7 3c 70 12 77 bc
       0.009576738 0.07921091 0.024405988 -0.015080079
0002b0 28 0d 54 3b 13 ad d1 3b b2 7a 98 3c fc eb 5d bd
       0.0032356475 0.006398806 0.018613193 -0.05418013
0002c0 df dc 77 bc 10 d5 e4 bc 9c fb 27 bd 68 ad 13 3d
       -0.015128343 -0.027933627 -0.041011438 0.036054045
0002d0 b4 5f 41 bb 1b 04 d9 3b 59 4e be 3c 5a c0 0c bd
       -0.0029506506 0.006622804 0.023230718 -0.03436313
0002e0 3a 59 ad 3d 47 ea 95 bd ba a6 69 3d 41 c1 a2 bc
       0.08464284 -0.073200755 0.05704377 -0.019867541
0002f0 41 56 58 3d 21 b8 8f bd 06 24 0a bc 86 17 28 bd
       0.052816633 -0.07017542 -0.00843144 -0.04103806
000300 9c ad a4 3c 71 b1 4f b9 e9 5f e2 bc ac 62 1e 3d
       0.020102315 -0.0001980716 -0.027633624 0.03866832
000310 0c 9d 16 bd a7 b4 35 bd 3d 60 7b 3d d1 94 c6 bd
       -0.036770865 -0.044361737 0.061371077 -0.09696353
000320 ec c5 40 bd ef fd ad bd 27 9f 98 bb f3 17 11 3d
       -0.047063753 -0.084956996 -0.0046576443 0.03542323
000330 ad 98 03 3d 23 00 c5 3c a4 68 cd bc f9 3e 30 bd
       0.032128025 0.024047917 -0.02507431 -0.043028805
000340 3a 1a 01 bd 56 85 aa bd 38 96 a2 3c 78 e1 c8 bb
       -0.031519152 -0.08326213 0.01984702 -0.0061303936
000350 92 8f a5 3d a8 e2 4f bd c9 47 c1 bc cc 6b 96 3d
       0.080840245 -0.050753266 -0.0235938 0.07344779
000360 54 9d 98 3c eb 95 51 3d 3a c6 a1 bd 8a 4e 68 bd
       0.018629707 0.051168364 -0.07899137 -0.056715526
000370 53 e2 c0 bc db 9f c3 3c 8a 42 04 3d 8e c8 93 3d
       -0.02354542 0.023879936 0.03229002 0.07215987
000380 06 0d 6f bd 75 c7 e2 bc f3 da 66 bd ab 00 7e 3d
       -0.05836203 -0.027683 -0.05636115 0.062012356
000390 08 f3 44 bc ef 4a 21 3b f2 fb 5a bc 61 78 3d bd
       -0.012020834 0.0024611314 -0.0133657325 -0.04625738
0003a0 75 44 02 bd e3 a7 93 3d e5 c4 44 3d d2 3d e4 3c
       -0.031803567 0.07209756 0.048039336 0.02786151
0003b0 8b 30 1f bd c9 e6 f9 3c 10 aa fa 3c 28 e4 a7 3d
       -0.038864654 0.030505555 0.03059867 0.08197814
0003c0 7d c9 be 3b 19 86 e5 bc 8e e2 1f 3d 95 79 39 bd
       0.005822359 -0.028018044 0.03903442 -0.045281965
0003d0 15 ac 0b bd 85 d0 72 3c d1 fa 4c 3c 58 bc 52 3c
       -0.034099657 0.014820223 0.012510971 0.012862287
0003e0 8c eb ae 3c e3 a0 93 3d de 11 65 bd 93 9a fb bc
       0.021352552 0.07208421 -0.055925243 -0.030713355
0003f0 72 27 05 bd cc ee e0 3c 89 de 15 bc d8 23 3c bc
       -0.03250832 0.027457617 -0.009147295 -0.011483155

bbox_fc.bias f4 [4]
000000 64 86 58 3d f4 11 d1 bd db 2c 1d bd 63 96 a2 bc
       0.05286254 -0.102085024 -0.038372856 -0.0198471
